actor.pth (torch_old, 579623 bytes, 6 tensors)

fc1.weight f4 [512, 24]
0	0x3cda3e45	0.02664102
1	0xbadbfafc	-0.0016783173
2	0xbcb084a5	-0.021547625
3	0xbd06e8ff	-0.032937046
4	0x3d9891ee	0.07449709
5	0x3d847981	0.064684875
6	0x3b4c425c	0.0031167483
7	0x3c56567f	0.013082146
8	0xbd31aa54	-0.04337533
9	0xbca32d92	-0.01991919
10	0x3aad5c0d	0.0013226286
11	0x3c983970	0.018582076
12	0x3daad899	0.08342094
13	0x3caebb0b	0.021329423
14	0xbc41965a	-0.011815632
15	0x3d69ee6d	0.057112146
16	0xba5afc20	-0.00083536096
17	0xbd58ef18	-0.052962393
18	0xbcfd9188	-0.030953184
19	0xbb87729f	-0.004133537
20	0xbceb4f25	-0.028724262
21	0x3dd0878a	0.10182102
22	0x3ce8b800	0.02840805
23	0x3c9446dc	0.018100195
24	0x3d458c2b	0.048229378
25	0x3d8be0ce	0.068299875
26	0x3a01db68	0.00049536536
27	0xbc84bd1e	-0.01620346
28	0xbd1d3f91	-0.0383907
29	0x3d015bfe	0.03158187
30	0x3d6a723a	0.05723784
31	0x3d80f7f4	0.06297293
32	0x3d2c5670	0.04207462
33	0x3d92b5b7	0.071635656
34	0xbd2e9f9e	-0.04263269
35	0x3cf8192b	0.030285439
36	0xbcf64e26	-0.030066561
37	0x3d2ee3c7	0.042697694
38	0xbd70fcac	-0.058834717
39	0x3c68b7b9	0.014203959
40	0x3d037682	0.03209544
41	0x3dcbbc94	0.09948078
42	0x3d3581c8	0.044313222
43	0x3c72d1c3	0.014820519
44	0xbc3c1548	-0.011479683
45	0xbd695d94	-0.05697401
46	0x3d21249d	0.039341558
47	0x3d6bdaed	0.05758183
48	0xbc3e6ccb	-0.011622618
49	0x3c1524fc	0.009103056
50	0xbd29074f	-0.041266736
51	0xbdeefe22	-0.11669566
52	0x3d82a08d	0.06378279
53	0xbd1263ae	-0.035739593
54	0xbcb3d34e	-0.021951344
55	0xbdb5f8de	-0.08885358
56	0xbc835967	-0.016033841
57	0x3d8f3fda	0.069946006
58	0x3c182d49	0.009288141
59	0xbc04eb36	-0.008112719
60	0x3d128a00	0.03577614
61	0xbc70e488	-0.014702924
62	0x3d754c5b	0.05988727
63	0xbd38b96a	-0.0450987
64	0xbccd65b7	-0.025072915
65	0xbc53219a	-0.012886429
66	0x3c8f21a6	0.0174721
67	0xbda043ac	-0.078254074
68	0xbd0f005c	-0.034912452
69	0x3d7b3389	0.061328445
70	0xbc247caa	-0.010039488
71	0xbdaa58a4	-0.08317688
72	0xbcd40870	-0.02588293
73	0xbd338fbc	-0.043838248
74	0xbc271a66	-0.010199165
75	0xbd5854a3	-0.05281509
76	0x3de95c42	0.1139455
77	0x3db805b1	0.089854605
78	0x3be61561	0.0070215915
79	0xbd492182	-0.04910422
80	0xbd48b83f	-0.049003836
81	0xbdf33ab9	-0.11876435
82	0xbb2dff2f	-0.0026549806
83	0xbc8c5899	-0.01713209
84	0x3d990ce5	0.074731626
85	0x3d9cfdd1	0.07665599
86	0xbcb9e285	-0.02269102
87	0xbd20d07a	-0.03926132
88	0xbd465187	-0.048417594
89	0xbd9e29f1	-0.077228434
90	0x3cc22e53	0.02370373
91	0x3d0cb519	0.034352396
92	0xbd087108	-0.03331092
93	0x3db358e3	0.08757188
94	0xbc375c61	-0.011191458
95	0x3cca364f	0.0246841
96	0xbcc99d8d	-0.024611259
97	0xbdb4ab89	-0.0882178
98	0xbd049996	-0.032373033
99	0xbb859207	-0.0040762457
100	0x3d98940f	0.07450115
101	0x3c215ab7	0.009848288
102	0x3c4d54ba	0.012532407
103	0x3cde7c47	0.02715887
104	0x3c4cd4ae	0.012501879
105	0xbdb5c6a2	-0.08875777
106	0xbd4203cc	-0.047366902
107	0xbc5c53e0	-0.013447732
108	0xbc996627	-0.018725468
109	0xbcc98b4e	-0.024602558
110	0xbc806fe5	-0.015678355
111	0xbae0a2ab	-0.0017138323
112	0xbd46940c	-0.048481032
113	0xbdc6edd6	-0.09713332
114	0x3d3be724	0.04587473
115	0xbcdce345	-0.02696384
116	0x3c7103cf	0.014710381
117	0x3d0e584b	0.03475217
118	0xbd048b5b	-0.032359462
119	0xbcc72928	-0.024311617
120	0x3c65d7ca	0.014028499
121	0x3c173d07	0.009230859
122	0xbd1a111b	-0.03761397
123	0xbda7a968	-0.081866086
124	0xbc790876	-0.015199771
125	0xbd844c90	-0.06459916
126	0x3bfc4de5	0.0076997154
127	0xbd9e907f	-0.07742404
128	0xbc91ab17	-0.017781777
129	0x3c647b9b	0.013945485
130	0x3b661eaf	0.0035113504
131	0xbdf4acb3	-0.11947002
132	0x3c8529ca	0.016255278
133	0x3b2b86fb	0.0026172984
134	0xbc5951c2	-0.0132641215
135	0xbe10f1eb	-0.14154784
136	0x3c9e7870	0.019344538
137	0x3cd8edd3	0.02648059
138	0xbd985a16	-0.074390575
139	0xbaa8109a	-0.001282233
140	0x3c0c409b	0.008560325
141	0x3c5e32d0	0.013561919
142	0xbd18d963	-0.03731669
143	0xbc03e6f0	-0.008050665
144	0x3d1b60f6	0.037934266
145	0xbcd30286	-0.02575804
146	0x3d101101	0.035172466
147	0xbd5dacad	-0.054119755
148	0x3de92666	0.11384277
149	0x3c2d33f7	0.010571471
150	0x3c2b15cf	0.010442211
151	0xbd73edc2	-0.059552915
152	0xbc3e0563	-0.011597964
153	0xbc924aa1	-0.017857851
154	0xbd043c0c	-0.032283828
155	0xbb8ce469	-0.0042996895
156	0x3d83ce0b	0.06435784
157	0x3d993e7e	0.074826226
158	0x3ce2189a	0.027599622
159	0x3cee65fe	0.029101368
160	0xbcc267d4	-0.02373115
161	0xba5279d4	-0.0008029018
162	0xbd096846	-0.03354671
163	0x3cc1ce41	0.02365792
164	0xbcaa7541	-0.020807864
165	0x3da1340c	0.07871255
166	0xbc9fda09	-0.019513147
167	0xbb2b4967	-0.002613628
168	0x3d44be98	0.048033327
169	0xbd4d982d	-0.050193954
170	0x3ccfffe8	0.02539058
171	0x3cb3bf91	0.021941932
172	0xbcc838ef	-0.02444121
173	0x3cea178d	0.028575683
174	0xbbd8880c	-0.006608015
175	0xb96df55d	-0.00022693486
176	0x3d740510	0.05957514
177	0xbdbcb8ad	-0.092149116
178	0x3c5c4161	0.013443322
179	0xbce3e0f0	-0.02781722
180	0xbd8fcd5b	-0.0702159
181	0x3d1e3440	0.03862405
182	0xbc276e2f	-0.010219141
183	0x3d215d30	0.03939551
184	0xbbf8d356	-0.0075935526
185	0xbd39b483	-0.045338165
186	0x3cc4b03d	0.024009818
187	0x3d87f9c9	0.066394396
188	0xbdc49e08	-0.096004546
189	0x3da806cc	0.082044214
190	0x3d341492	0.04396493
191	0x3d2c5f68	0.042083174
192	0xbc4bfa0e	-0.012449754
193	0xbdb88ae1	-0.09010864
194	0x3cf19b7c	0.029493086
195	0xbda39eb1	-0.07989252
196	0x3e0a0ba1	0.13480999
197	0xbd3fa1fc	-0.04678534
198	0xbbfbe8a8	-0.007687647
199	0xbd8e1b3f	-0.069387905
200	0xbcdfdbf7	-0.027326567
201	0xbddaa4ce	-0.10675965
202	0x3c7eb657	0.015546403
203	0xbdb52e6d	-0.08846746
204	0x3dcbaef1	0.09945477
205	0xbd719cb2	-0.058987327
206	0x3d200fb2	0.03907747
207	0xbd9ceef1	-0.07662762
208	0xbd2ce2be	-0.042208426
209	0xbdea9336	-0.114538595
210	0xbbc8d88e	-0.006129331
211	0xbdd4a187	-0.103823714
212	0xbd94c1e4	-0.07263544
213	0x3d8211d1	0.063510545
214	0xbcf856d6	-0.030314844
215	0xbdc652a5	-0.09683732
216	0x3ba4bda1	0.0050274883
217	0xbd979626	-0.074016854
218	0xbc6aa691	-0.014321939
219	0x3d0dd7a2	0.03462947
220	0xbd2cd237	-0.042192664
221	0x3d0d37c3	0.034477007
222	0xbaad1bf2	-0.0013207181
223	0x3cdae083	0.026718384
224	0x3cb42125	0.02198846
225	0xbd84cccc	-0.064843744
226	0xbc1373aa	-0.008999744
227	0xbae7758e	-0.0017658935
228	0xbcf4bd22	-0.029875342
229	0xbb18635b	-0.002325258
230	0x3cb962f2	0.022630189
231	0x3b73cbe7	0.0037200393
232	0x3d33b631	0.043874923
233	0xbd304f7c	-0.043044552
234	0x3d379717	0.044821825
235	0xbd21c4a4	-0.03949417
236	0xbd67fe16	-0.0566388
237	0x3c45e58f	0.012078657
238	0xbb3f5d11	-0.002919976
239	0xbd729867	-0.059227373
240	0x3baec40b	0.0053334287
241	0x3cd97420	0.02654463
242	0xbbdd3069	-0.0067501557
243	0xbd580ffd	-0.052749623
244	0x3d7e1bb3	0.062038135
245	0x3d81ec08	0.063438475
246	0xbbc5bce3	-0.00603448
247	0xbcffa2f2	-0.031205628
248	0xbc49ee54	-0.012324888
249	0xbc007de0	-0.007842511
250	0xbce56bf2	-0.028005574
251	0xbc8a8a7b	-0.016911736
252	0xbd3ec636	-0.046575747
253	0x3dd670c0	0.10470724
254	0x3b62376f	0.0034517904
255	0x3bba1d4c	0.005679762

fc1.bias f4 [512]
0	0x3c88d412	0.016702686
1	0x3d5c7689	0.05382398
2	0xbe34b85b	-0.17648451
3	0x3a5d872b	0.00084506226
4	0xbde29190	-0.1106292
5	0xbe6e6417	-0.23280369
6	0x3de820fb	0.113344155
7	0xbd66a1d5	-0.05630668
8	0xbe0dd408	-0.13850415
9	0xbd497a70	-0.04918903
10	0xbda72457	-0.08161228
11	0x3dd8e128	0.1058982
12	0x3c26035c	0.010132637
13	0xbe0f20d7	-0.13977371
14	0xbd601fd2	-0.054717846
15	0xbc68d195	-0.0142101245
16	0x3dee1924	0.11625889
17	0x3cb401f7	0.021973593
18	0xbdbc599f	-0.09196781
19	0xbc38d38b	-0.0112809045
20	0x3e4c3643	0.19942574
21	0xbe63421b	-0.22193186
22	0xbdeb45b8	-0.11487907
23	0x3e3a36a0	0.181849
24	0xbd889ef5	-0.06670944
25	0x3e1f6b79	0.15568341
26	0xbe2698a5	-0.16269167
27	0x3e47da27	0.19516812
28	0x3e0cdf7f	0.13757132
29	0xbcc222ff	-0.023698328
30	0xbe14e0d8	-0.14538896
31	0xbd5bacb6	-0.053631507
32	0x3dee8185	0.11645798
33	0xbd827f1b	-0.063719
34	0xbe2502d4	-0.1611436
35	0xbe3e6c90	-0.18596101
36	0x3dee7e42	0.116451755
37	0x3e476dc0	0.1947546
38	0xbddee67f	-0.108838074
39	0xbb61884f	-0.0034413522
40	0xbddc379b	-0.107527934
41	0x3dcdb7e4	0.1004484
42	0xbe0b25e7	-0.13588677
43	0xbddc2e89	-0.107510634
44	0xbde4f4f2	-0.11179532
45	0xbcfaa1be	-0.030594703
46	0x3cffef7a	0.031242121
47	0xbe3889ab	-0.18021266
48	0xbdada597	-0.084788494
49	0xbdaad470	-0.083413005
50	0xbd205cfd	-0.03915118
51	0x3c262f12	0.010143058
52	0x3cbe4287	0.023225082
53	0x3d63b3df	0.05559146
54	0xbdc24618	-0.094860256
55	0x3d0d5fed	0.03451531
56	0x3e6f0093	0.23340063
57	0x3b5d5a8d	0.0033775896
58	0xbe3176d9	-0.17330493
59	0x3e0f6592	0.1400359
60	0xbe27c945	-0.16385372
61	0x3dd9e705	0.106397666
62	0x3e397000	0.18109131
63	0x3cd89fa0	0.026443303
64	0x3e167488	0.1469289
65	0x3e2cb9cc	0.16867751
66	0x3dc831f1	0.097751506
67	0xbd3142f7	-0.043276753
68	0x3da06259	0.07831258
69	0x3e30b4e7	0.17256509
70	0x3dc14480	0.094368935
71	0xbe1a0e8e	-0.15044615
72	0x3e192810	0.14956689
73	0x3e5fa94e	0.21841928
74	0x3ddd8642	0.10816623
75	0x3df1d952	0.11809029
76	0x3e0f6a20	0.14005327
77	0xbdaf9020	-0.085724115
78	0xbd8602bb	-0.065434895
79	0x3d8ac2c9	0.067754336
80	0x3d830fb2	0.06399478
81	0x3d5d59c8	0.0540407
82	0x3d55d5a7	0.052205708
83	0xbe401e13	-0.18761472
84	0x3dd0a992	0.10188593
85	0xbddf03b0	-0.10889375
86	0xbe59b170	-0.21259093
87	0x3e5bd239	0.21466912
88	0x3de4fcb2	0.1118101
89	0x3da45855	0.080246605
90	0xbdf196c2	-0.11796333
91	0x3da8dbbc	0.08245036
92	0x3b9946ec	0.004677644
93	0x3e3293cd	0.17439194
94	0x3c821f68	0.015884116
95	0x3e48a666	0.19594726
96	0xbca8d2ac	-0.020608269
97	0x3e2e03d3	0.16993646
98	0x3e5b8666	0.21437988
99	0x3d3fe6b1	0.046850864
100	0xbe1df4d7	-0.1542543
101	0x3c152496	0.009102961
102	0x3e20a52f	0.15688013
103	0xbd81fa7a	-0.06346603
104	0xbca26b3d	-0.019826526
105	0x3d319878	0.043358296
106	0x3d0c1639	0.03420088
107	0x3e471ad9	0.19443835
108	0x3d99112d	0.07473979
109	0x3cd46121	0.02592522
110	0x3c9578c1	0.018246057
111	0xbd14040f	-0.036136683
112	0xbe638446	-0.22218427
113	0xbd778b10	-0.060435355
114	0xbe45bd0f	-0.19310401
115	0x3e18e77b	0.14932053
116	0x3d8faff6	0.07015984
117	0x3d898c49	0.067162104
118	0xbccbe6d1	-0.024890335
119	0xbdc2646b	-0.094918095
120	0xbdbe3601	-0.09287644
121	0xbd6ae37f	-0.057345863
122	0x3d7f9a26	0.062402867
123	0xbe022523	-0.12709479
124	0xbe0a677d	-0.1351604
125	0x3e1d8bab	0.1538531
126	0xbd57d0f2	-0.0526895
127	0x3dbc385d	0.09190438
128	0x3e49ce8a	0.19707695
129	0x3e3eb55a	0.18623868
130	0xbe0ebc91	-0.1393912
131	0x3d8a9278	0.06766218
132	0xbe32ea13	-0.17472105
133	0x3bf60f09	0.0075091165
134	0x3b0cc4d9	0.0021479635
135	0xbdcc75af	-0.09983384
136	0x3d5cc0c3	0.05389477
137	0xbca01524	-0.01954133
138	0x3e0169c7	0.12638007
139	0x3c987cca	0.018614192
140	0x3e13af60	0.14422369
141	0x3e0d6159	0.13806666
142	0x3d653d8c	0.0559669
143	0x3d758bb5	0.059947688
144	0xbdc59b35	-0.09648744
145	0xbe0c11ac	-0.13678616
146	0x3e04e288	0.1297704
147	0x3e1a1252	0.15046051
148	0x3c15baa5	0.009138738
149	0x3e390aa5	0.18070467
150	0x3de8c0f1	0.11364926
151	0x3e05cba6	0.13065967
152	0xbd2fd1ba	-0.04292462
153	0x3d37079b	0.044684988
154	0xbe41ee93	-0.18938665
155	0xbe411d5b	-0.18858854
156	0x3d9d79b6	0.0768923
157	0xbe07e28b	-0.13270013
158	0x3e11fb48	0.14256012
159	0xbde2be5a	-0.11071463
160	0xbe4ce37f	-0.20008658
161	0xbe14ad95	-0.14519341
162	0x3de21276	0.110386774
163	0xbe28f711	-0.16500498
164	0xbe211b93	-0.15733175
165	0x3dd75b7c	0.10515496
166	0xbd810792	-0.06300272
167	0xbe2aeb4e	-0.16691324
168	0x3dea4b64	0.11440161
169	0x3e129aaa	0.14316812
170	0x3e3fc8b8	0.18728912
171	0x3e014281	0.12623025
172	0xbe1dee44	-0.15422922
173	0xbd9762c2	-0.073918834
174	0xbdbc27b2	-0.09187259
175	0xbe550967	-0.20804368
176	0x3e0a2f8c	0.134947
177	0xbd8c2c88	-0.06844431
178	0x3dafda77	0.08586591
179	0xbd98541b	-0.07437917
180	0x3e65a080	0.22424507
181	0x3e1a3f97	0.1506332
182	0x3e2adb5d	0.16685243
183	0x3da0386a	0.0782326
184	0x3e1d04df	0.1533389
185	0x3e13dd53	0.14439897
186	0x3d4f6b62	0.050639518
187	0x3d22865c	0.039678916
188	0x3e3a9fdf	0.18225048
189	0xbe5002cd	-0.20313568
190	0x3e1e78ee	0.15475819
191	0xbc712dee	-0.014720423
192	0xbc99ef8c	-0.018790983
193	0xbdefe9c8	-0.11714512
194	0xbd5d6567	-0.054051783
195	0x3dbd2c28	0.09236938
196	0xbd65cbf7	-0.05610272
197	0x3d99e81d	0.07514975
198	0x3d2c4a58	0.042063087
199	0xbe1d14db	-0.15339987
200	0x3dd47bc6	0.103751704
201	0xbdef9df0	-0.11700046
202	0xbda32d2a	-0.07967599
203	0xbd883b7e	-0.06651972
204	0x3df8f998	0.12156981
205	0xbe399bca	-0.18125835
206	0xbe2ba037	-0.16760336
207	0x3d974c2c	0.073875755
208	0xbd9f068d	-0.07764921
209	0xbd06a401	-0.03287125
210	0xbe325414	-0.17414886
211	0x3d890bf4	0.06691733
212	0x3df7d345	0.12100843
213	0xbd927475	-0.07151119
214	0x3d0e26cf	0.03470498
215	0xbcb4d28f	-0.022073058
216	0xbc6e874a	-0.014558623
217	0x3e1f7152	0.15570572
218	0x3d811076	0.06301968
219	0x3d245d6e	0.040128164
220	0x3c600922	0.013674052
221	0xbc31d4b9	-0.01085394
222	0x3ddd07a7	0.10792475
223	0xbace89b8	-0.0015757596
224	0x3cd4d693	0.025981223
225	0x3e257c2f	0.16160654
226	0x3e1ea4af	0.1549251
227	0xbd95cdcb	-0.073146425
228	0xbe069aca	-0.13144985
229	0x3d206cdf	0.039166328
230	0xbe093f3b	-0.13403027
231	0xbe5ab5b1	-0.21358372
232	0x3e0810f7	0.13287722
233	0xbdc65f3d	-0.09686134
234	0x3e650162	0.22363809
235	0xbe39345f	-0.18086384
236	0xbe3b5298	-0.18293226
237	0x3dcbf16d	0.09958158
238	0x3ce32521	0.027727665
239	0xbd9b01fb	-0.07568737
240	0x3db2c598	0.08729094
241	0xbdf7b52a	-0.12095101
242	0xbdea3087	-0.11435037
243	0xbe58b7d8	-0.21163881
244	0xbdfa7c3b	-0.12230726
245	0xbe119100	-0.1421547
246	0x3e470a34	0.19437486
247	0xbd9e0642	-0.07716037
248	0x3d017347	0.031604078
249	0xbd3cc0a6	-0.04608216
250	0xbd8350d1	-0.06411899
251	0x3e094c6a	0.13408056
252	0x3d0eb524	0.034840718
253	0x3d741548	0.059590608
254	0x3db6efa0	0.089324236
255	0xbe20c58e	-0.15700361

fc2.weight f4 [256, 512]
0	0xba4607ef	-0.0007554283
1	0x3d5e49a9	0.054269467
2	0x3c3a60d5	0.011375626
3	0x3d3de4f8	0.04636094
4	0xbcd3ee83	-0.025870567
5	0xbbd35eea	-0.0064505236
6	0x3d273cdd	0.040829528
7	0xbd4226ae	-0.04740017
8	0xbb884dcf	-0.004159666
9	0x3c03c9c0	0.008043706
10	0x3caf07e6	0.021366071
11	0x3cc84ca4	0.024450608
12	0xbd70eef1	-0.058821622
13	0x3d92c162	0.07165791
14	0x3d7b6373	0.06137414
15	0xbd85c762	-0.0653217
16	0x3d7be89c	0.06150113
17	0x3b790f16	0.0038003377
18	0x3cb6d587	0.022318615
19	0xbd75e1cb	-0.060029786
20	0x3d8cd49f	0.06876492
21	0x3d4a2521	0.049351815
22	0x3d7da8e9	0.061928663
23	0x3d93f828	0.072250664
24	0xbd0bdc05	-0.034145374
25	0x3ceef851	0.02917114
26	0xbc60ebde	-0.01372811
27	0xbd7d92b5	-0.06190749
28	0xbd071930	-0.032983005
29	0x3d6f5cd8	0.058438152
30	0xbdb51d4a	-0.08843477
31	0xba79a28d	-0.0009522818
32	0xbc8e9cbd	-0.017408723
33	0xbd303fdf	-0.043029662
34	0x3dadc9e1	0.08485771
35	0x3d3f6d09	0.046734843
36	0xbcd4cc9d	-0.025976473
37	0x3d3e5c52	0.046474762
38	0xbd289d32	-0.041165538
39	0x3d0325b1	0.032018367
40	0x3b2807dd	0.0025639453
41	0x3cf32480	0.02968049
42	0x3d90d6fe	0.070722565
43	0xbd00dc9e	-0.031460397
44	0x3d4f72d4	0.050646618
45	0x3b906ed4	0.004407743
46	0xbd8c0d7c	-0.068385094
47	0xbbc33021	-0.005956665
48	0x3d6a5e51	0.057218853
49	0x3d0f7074	0.035019353
50	0x3d1594fb	0.036519032
51	0xba37fbd4	-0.00070184213
52	0x3d24ea7b	0.04026268
53	0x3d41f1b5	0.04734965
54	0xbd8fcdbc	-0.070216626
55	0xbd82e287	-0.06390863
56	0xbd1c683f	-0.038185354
57	0x3de9c6ae	0.11414848
58	0x3ce7b213	0.028283155
59	0xbd983285	-0.07431511
60	0xbdbf2708	-0.093336165
61	0xbcd4417f	-0.025910137
62	0xba4100bb	-0.00073624746
63	0xbc35d36f	-0.011097773
64	0x3d88773c	0.06663367
65	0xba65a99e	-0.00087609317
66	0x3c908250	0.017640263
67	0x3d8bf96f	0.06834685
68	0x3d370e0c	0.04469113
69	0x3d4ac9f5	0.049509007
70	0x3c96e037	0.01841746
71	0xbd47931a	-0.04872427
72	0x3a6e80c4	0.0009098167
73	0xbbb49c6f	-0.0055118124
74	0x3d9f495b	0.07777663
75	0x3d42352c	0.04741399
76	0xbc7569d3	-0.014978844
77	0x3da50040	0.08056688
78	0x3cf10a87	0.029423965
79	0xbc84a14e	-0.016190197
80	0x3d82ac2b	0.06380495
81	0x3d443027	0.047897484
82	0xbd34c12f	-0.044129547
83	0xbd513128	-0.05107227
84	0x3d008e11	0.031385485
85	0x3d85109f	0.06497311
86	0x3d601186	0.05470421
87	0xbd3d9e36	-0.04629346
88	0x3d30d0ec	0.043167993
89	0xbbc927b0	-0.0061387643
90	0x3c777375	0.015103211
91	0x3d3253e7	0.043537047
92	0x3d895378	0.067053735
93	0xbd2831e1	-0.041063193
94	0x3d8aecf7	0.06783479
95	0x3d80d0cf	0.06289827
96	0x3d87c751	0.066298135
97	0x3da2fba0	0.0795815
98	0x3b611c51	0.0034349153
99	0x3c2ae088	0.010429509
100	0x3d577bad	0.05260818
101	0x3d2660b7	0.04061958
102	0x3da31199	0.07962341
103	0x3d6c1fd5	0.057647545
104	0x3d94e9d4	0.07271162
105	0x3da216a7	0.07914477
106	0xbd799dd0	-0.060941517
107	0x3a711804	0.0009196999
108	0x3cb34d07	0.021887315
109	0xbc93ec15	-0.018056909
110	0xbd15b953	-0.036553692
111	0x3d3e1fb8	0.046416968
112	0xbcdc0122	-0.026856009
113	0x3d5e046b	0.054203432
114	0xbc8f3459	-0.017481016
115	0x3c99816d	0.018738473
116	0xbd0c4c39	-0.03425238
117	0xbc24982a	-0.010046044
118	0xbb494c59	-0.0030715673
119	0x3abec9b1	0.0014555958
120	0x3aca189e	0.0015418713
121	0x3c74143d	0.014897403
122	0x3d1e744a	0.03868512
123	0xbc731606	-0.014836794
124	0x3c95eef2	0.018302415
125	0x3da51d57	0.08062237
126	0x3dea9a23	0.114551805
127	0xbc880da5	-0.016608069
128	0x3bb73500	0.005591035
129	0x3d937748	0.072004855
130	0x3da278ff	0.079332344
131	0x3cbe804b	0.023254534
132	0x3bd971e6	0.006635892
133	0xbd388633	-0.045049857
134	0x3d6c01c2	0.057618864
135	0xbd8f4e46	-0.06997351
136	0x3d6ae571	0.05734772
137	0xbc6041a1	-0.013687522
138	0x3d7c6d29	0.06162754
139	0xbd03d479	-0.03218505
140	0xbc4911e9	-0.0122723365
141	0x3c29ed81	0.010371567
142	0x3e00a08f	0.12561248
143	0x3d0b7518	0.034047216
144	0xbcdd8541	-0.02704108
145	0x3b3bce86	0.0028657033
146	0xbd037aa0	-0.032099366
147	0x3d4aa453	0.049473118
148	0x3ce46f0c	0.027884983
149	0x3cb8dff8	0.022567734
150	0x3d94979c	0.0725548
151	0xbd669058	-0.05629
152	0xbce14c63	-0.027502244
153	0xbd4aad12	-0.04948146
154	0x3c13d034	0.009021807
155	0xbb84c4cb	-0.00405178
156	0xbc072cab	-0.008250396
157	0x3d1adfde	0.037811153
158	0xbbbbe52f	-0.005734108
159	0x3cff7737	0.031184776
160	0x3d0caf58	0.03434691
161	0x3e1285d0	0.14308858
162	0x3c2ca57d	0.010537502
163	0x3d86c83f	0.06581163
164	0x3b983fe2	0.0046462873
165	0x3d857f45	0.06518415
166	0x3c499cf8	0.012305491
167	0xbb98e493	-0.00466592
168	0x3d52e52c	0.051488087
169	0x3dac1e4e	0.08404218
170	0x3b2f08a0	0.0026708022
171	0x3bdfc5f2	0.006829017
172	0xbc772fb1	-0.015087054
173	0x3d339953	0.043847393
174	0x3cb27562	0.021784488
175	0x3d8debea	0.06929763
176	0x3c851f91	0.016250404
177	0xbd4eb5e2	-0.050466426
178	0x3d623696	0.05522784
179	0xbd81c39b	-0.06336137
180	0xbce36d7d	-0.027762169
181	0x3c95d8d3	0.018291866
182	0xbd4ad893	-0.049522948
183	0x3de3cfb8	0.111236036
184	0x3cca6629	0.024706917
185	0x3d28e74c	0.041236207
186	0x3d4d94f0	0.050190866
187	0xbc4e1ceb	-0.012580137
188	0xbbbc6ca4	-0.0057502557
189	0xbc225a83	-0.009909275
190	0x3d55f520	0.052235723
191	0xbccc1257	-0.024911089
192	0x3dcba97e	0.099444374
193	0x3cd91d14	0.026503123
194	0x3d7cdb72	0.061732717
195	0x3ca485b2	0.020083282
196	0x3d40b780	0.04705
197	0xbce3202a	-0.027725298
198	0x3d757d21	0.059933785
199	0x3d78b859	0.060722683
200	0xbcd3cdf9	-0.025855051
201	0x3d3b1d5a	0.04568229
202	0x3d4df569	0.05028287
203	0xbc832338	-0.016008005
204	0x3c9c8d2f	0.01911029
205	0x3d3de379	0.046359513
206	0x3c79e77f	0.015252947
207	0x3ddb0faa	0.10696347
208	0x3dacfe24	0.08446911
209	0x3d7fe443	0.062473547
210	0xbc428481	-0.011872412
211	0x3cf1848e	0.029482152
212	0x3d51bb67	0.05120411
213	0x3cd44cd8	0.025915548
214	0xbc982ec0	-0.01857698
215	0x3d1fe697	0.039038267
216	0x39d004da	0.00039676466
217	0xbcabd8dd	-0.020977432
218	0xbd4bdfda	-0.04977403
219	0xbc52de0e	-0.012870325
220	0xbd39b813	-0.045341562
221	0x3d52486b	0.051338594
222	0xbbee0a2f	-0.0072643976
223	0x3de441c2	0.11145355
224	0xbc0e939c	-0.008702185
225	0x3d085d59	0.03329215
226	0x3998f28d	0.00029172414
227	0x3dbed2e0	0.09317565
228	0x3d244499	0.040104482
229	0x3d35ac25	0.044353623
230	0xbd228130	-0.039673984
231	0x3c9d2dca	0.019186873
232	0x3d8e3359	0.069433875
233	0xbd0ec034	-0.034851268
234	0xbb5664d4	-0.0032713907
235	0xbb89d065	-0.0042057508
236	0x3d217d83	0.039426338
237	0xbba6fade	-0.0050958237
238	0xbd2e8e1d	-0.042616
239	0x3c9d46d1	0.019198807
240	0x3d90caa0	0.07069898
241	0xbd8ae7b4	-0.06782475
242	0xbc036348	-0.008019276
243	0x3c7c45d6	0.01539751
244	0x3d00002e	0.03125017
245	0x3b525985	0.0032096815
246	0x3d95405f	0.072876684
247	0xbd0f15be	-0.034932844
248	0xbd46ae27	-0.04850593
249	0x3bb1f534	0.005430842
250	0x3ca0b0bf	0.01961553
251	0x3c7b6e55	0.015346129
252	0x3c8166bc	0.015796058
253	0x3daab927	0.08336096
254	0x3e0e5b47	0.13902007
255	0x3d175fcb	0.03695659

fc2.bias f4 [256]
0	0x3d195b79	0.03744075
1	0x3d7ec0db	0.06219564
2	0x3d1a8168	0.037721068
3	0x3ce3104b	0.02771773
4	0x3b030a72	0.001999524
5	0x3bc8efef	0.006132118
6	0x3d8fc86b	0.070206486
7	0x3d83939d	0.064246394
8	0x3da44d57	0.08022564
9	0x3c3350ea	0.010944584
10	0x3d42e5b5	0.047582347
11	0xbd537e80	-0.05163431
12	0x3a936076	0.0011243958
13	0x3c62f4b6	0.013852289
14	0xbcfdc3f0	-0.03097722
15	0x3d5ff137	0.0546734
16	0xbcdf103b	-0.027229419
17	0xbcf3bccd	-0.029753113
18	0xbb85453b	-0.004067091
19	0x3d5a2103	0.05325414
20	0xb961bb6c	-0.00021527492
21	0x3d32f4ed	0.04369061
22	0x3c65fcaa	0.014037291
23	0xbc9ad2c9	-0.018899338
24	0x3d1b4c05	0.037914295
25	0x3d88d4fc	0.066812485
26	0x3d0afdb5	0.03393336
27	0xbcdb10c7	-0.026741398
28	0x3d7946fe	0.06085872
29	0x3d68046e	0.05664485
30	0xbce9c5ac	-0.02853664
31	0x3d2b68a5	0.041847844
32	0x3c341fc7	0.010993904
33	0x3cd0e258	0.025498554
34	0x3d824632	0.06361045
35	0xbc8e580c	-0.017375968
36	0x3d0de1b4	0.034639075
37	0xbbefb5eb	-0.0073153875
38	0x3b8846bb	0.0041588224
39	0x3cd180b9	0.025574075
40	0x3cc981e2	0.024598066
41	0xbb434780	-0.0029797256
42	0x3d806c75	0.062706865
43	0xbc056a31	-0.008142994
44	0x3b42a224	0.0029698694
45	0xbcbc61c7	-0.022995843
46	0x3d291fd7	0.04129013
47	0x3b967d57	0.0045925784
48	0x3cf04926	0.029331755
49	0x3d8ef690	0.06980622
50	0x3ce2238b	0.027604839
51	0xbc863535	-0.016382793
52	0x3d3d593c	0.04622768
53	0xbd067c49	-0.03283337
54	0xbd2e3649	-0.04253224
55	0xbcc97a24	-0.024594374
56	0xbd005877	-0.031334367
57	0xba2e4bd8	-0.0006648875
58	0x3d6f9735	0.05849381
59	0x3d1d467b	0.038397294
60	0x3cdcda99	0.026959704
61	0xbc8f1ff9	-0.0174713
62	0x3d3474a0	0.044056535
63	0xbcf90421	-0.030397477
64	0x3d2ee0c1	0.04269481
65	0xbb3588d6	-0.0027699969
66	0x3d58f6d0	0.052969754
67	0xbbfafc68	-0.0076594837
68	0x3b81b28c	0.003958052
69	0x3b8ee575	0.0043608495
70	0x3c92d903	0.017925745
71	0xbc4872d1	-0.012234406
72	0xbcc01b6d	-0.023450578
73	0xbce4eb9e	-0.027944382
74	0xbc2290bc	-0.009922203
75	0x3d9fc4da	0.07801218
76	0x3bff44c8	0.007790182
77	0x3caf1afb	0.02137517
78	0xbce362a8	-0.027757004
79	0xbd0e439a	-0.03473244
80	0x3bb300dd	0.0054627494
81	0x3c95fcff	0.018309115
82	0xbd158d4e	-0.03651171
83	0x3d49c971	0.049264375
84	0xbbbf29cf	-0.0058338414
85	0xbd6ddda4	-0.0580727
86	0x3dae63e4	0.085151464
87	0x3cf9964a	0.030467171
88	0x3d23e28e	0.04001098
89	0xbd27f44d	-0.041004468
90	0x3c5f7a8c	0.013640057
91	0xba124207	-0.0005579297
92	0xbba4972e	-0.005022905
93	0xbc31ab88	-0.010844119
94	0x3d373ede	0.04473769
95	0x3c5c5bcd	0.013449621
96	0x3ca323aa	0.019914467
97	0x3c0f0c1f	0.008730917
98	0x3cbf83dd	0.023378307
99	0x3d38e798	0.04514274
100	0x3b4c6d3d	0.003119304
101	0xbd4fe75e	-0.05075776
102	0x3cbd9be5	0.023145625
103	0xbce1953c	-0.02753698
104	0xbcb33019	-0.02187352
105	0x3b99c550	0.004692711
106	0x3b514525	0.0031932082
107	0x3d2c80d8	0.042115062
108	0x3c6e2264	0.014534567
109	0x3ce400d3	0.027832424
110	0xbcd421ba	-0.025894988
111	0x3cf61b65	0.03004236
112	0x3b943242	0.0045225928
113	0x3d8f1c6a	0.069878414
114	0xbc57d6c4	-0.013173763
115	0x3bfcba35	0.0077126273
116	0x3b7b4304	0.0038339505
117	0x3d2894cf	0.04115754
118	0x3d9ef06f	0.07760703
119	0x3c05db15	0.008169909
120	0xbc577a00	-0.013151646
121	0xbbda2636	-0.006657387
122	0xbd0e2506	-0.034703277
123	0x3d8cd825	0.06877164
124	0xbd087334	-0.03331299
125	0x3c22fee7	0.009948469
126	0xbc550f3e	-0.013004122
127	0x3a0e46e6	0.0005427435
128	0xbc22fb3c	-0.009947594
129	0xbc5be70b	-0.013421784
130	0xbb531384	-0.0032207677
131	0xbccaae9b	-0.024741462
132	0xbd1e0156	-0.038575493
133	0xbce68860	-0.0281412
134	0x3a21b420	0.00061685033
135	0x3cdbe88c	0.026844285
136	0x3c2eee5a	0.010676945
137	0x3d0e616d	0.03476088
138	0xbd76847c	-0.06018494
139	0xbc5c0a06	-0.013430124
140	0xbd4e3e7f	-0.05035257
141	0xbc990f6b	-0.01868411
142	0x3d328636	0.043585025
143	0x3b3b2e45	0.0028561514
144	0xbcad4c93	-0.021154677
145	0x3ad86d6b	0.0016512101
146	0xbcedab96	-0.029012483
147	0x3c6a2f33	0.01429348
148	0x3c446394	0.011986632
149	0x3d932110	0.071840405
150	0xbc3b830b	-0.011444817
151	0x3c4da645	0.012551849
152	0x3c529bf1	0.012854562
153	0xbd179fa8	-0.037017494
154	0x3b21cd26	0.0024688928
155	0x3ceef49e	0.029169377
156	0xbd46e861	-0.048561458
157	0xbb9ac601	-0.004723311
158	0x3cc9ae9d	0.024619395
159	0xbcc4e822	-0.02403647
160	0x3bb844ce	0.0056234365
161	0xbccbcd6e	-0.02487823
162	0x3c83b089	0.01607539
163	0xbcd973c8	-0.026544467
164	0x3b4aa044	0.003091828
165	0x3cda041d	0.02661329
166	0x3d0db75d	0.034598697
167	0xb9f44509	-0.00046590742
168	0x3cb3f0c4	0.021965392
169	0x3c57f162	0.013180109
170	0xbb26e337	-0.002546502
171	0xbcbfcf02	-0.023414139
172	0x3ce8156d	0.02833053
173	0xbc0ab34b	-0.008465598
174	0xbc81217f	-0.015763042
175	0x3d04ade1	0.032392386
176	0x3ce73046	0.02822126
177	0x3d18fed5	0.0373524
178	0xbcb0a526	-0.021563124
179	0xbc6ad891	-0.01433386
180	0x3cd21c9f	0.025648413
181	0xbd5cc354	-0.053897217
182	0xbc1d1dbf	-0.009589612
183	0x3ca5fdee	0.020262685
184	0x3d466b5c	0.04844223
185	0x3d46e9bd	0.048562754
186	0x3c850c0c	0.016241096
187	0x3cbe8cc5	0.023260484
188	0x3d95d5dd	0.07316182
189	0xbc9e62e9	-0.019334273
190	0x3c45bf4e	0.012069536
191	0xbbb977ea	-0.005660047
192	0x3c82fa33	0.015988445
193	0xbc4050c6	-0.011738008
194	0x3d0b837e	0.034060948
195	0x3cde3d23	0.027128762
196	0xbc72d4d8	-0.014821254
197	0x3bf47f29	0.0074614477
198	0x3c920cdb	0.017828396
199	0x3c7fe5af	0.015618726
200	0x3b2485b7	0.0025104114
201	0xbd2c6deb	-0.042097013
202	0xba1c8e21	-0.00059721066
203	0xbc483e54	-0.012221891
204	0x3bc33cb2	0.005958163
205	0x3d0b7c80	0.03405428
206	0x3cd0d281	0.025491001
207	0xbc8f7dbd	-0.017516011
208	0x3cacd700	0.021098614
209	0xbce5a0b0	-0.028030723
210	0x3c646b98	0.013941668
211	0x3caafcbd	0.020872468
212	0xbc72763c	-0.014798697
213	0x3cefb5d3	0.029261505
214	0xbc40e379	-0.011772984
215	0x3cf9f6d9	0.030513214
216	0xbc89da18	-0.016827628
217	0xbaeb3f7d	-0.0017947998
218	0xbcae2745	-0.02125896
219	0xbd054320	-0.03253472
220	0x3c5b331d	0.013378886
221	0x3d179b9a	0.037013628
222	0xbc4d1439	-0.0125170285
223	0x3bb88eca	0.005632256
224	0x3c544bd1	0.012957529
225	0x3d80ee18	0.06295413
226	0x3bec8c1d	0.0072188512
227	0x3ceb9497	0.028757377
228	0x3bce2459	0.006290954
229	0x3adcac23	0.0016835969
230	0xbc2209c2	-0.009890022
231	0xbbfd53bb	-0.0077309287
232	0x3c83ddef	0.016097037
233	0xbbb2cacb	-0.0054563037
234	0xbcd2bda9	-0.025725203
235	0xbd28aa87	-0.041178253
236	0x3d74dbe6	0.059780024
237	0xbce6c55a	-0.028170276
238	0x3c790a14	0.015200157
239	0x3d066d92	0.03281934
240	0xbd00f8a8	-0.031487137
241	0xbc2627f0	-0.010141358
242	0xbbf39cc9	-0.0074344617
243	0xbba3548d	-0.0049844445
244	0x3d0b9463	0.03407706
245	0x3cce63a4	0.025193997
246	0x3d727345	0.05919196
247	0xbd59c4bd	-0.05316614
248	0x3d06890f	0.032845553
249	0x3bd718b3	0.0065642237
250	0x3cf777e9	0.030208545
251	0x3c5311ff	0.012882709
252	0xbd1e3e19	-0.03863344
253	0x3d4fe0eb	0.050751608
254	0x3cfc2dda	0.030783582
255	0x3c1bc261	0.009506793

fc3.weight f4 [2, 256]
0	0x3d3a5577	0.045491662
1	0x3d52bbc2	0.05144859
2	0x3df4078e	0.119155034
3	0xbd3d0eb8	-0.046156615
4	0xbc7f987d	-0.015600321
5	0xbb628104	-0.0034561763
6	0x3d4268e8	0.047463328
7	0xbc8ff609	-0.017573373
8	0x3d499879	0.049217675
9	0x3d5d2e78	0.053999394
10	0xbc9e4238	-0.019318685
11	0xbd403381	-0.046924118
12	0x3a40c530	0.0007353602
13	0x3d8228c0	0.06355429
14	0x3ddf3967	0.108996205
15	0x3d368bfd	0.044567097
16	0xbc309eaf	-0.010780021
17	0xbd088deb	-0.03333847
18	0x3dfc2c07	0.12313085
19	0x3d1d7842	0.038444765
20	0x3d512d50	0.051068604
21	0x3d88da30	0.06682241
22	0xbd3d29b6	-0.046182357
23	0xbcf595b3	-0.029978609
24	0xbc1fd27f	-0.009754776
25	0x3d28bb4c	0.041194245
26	0x3cca4217	0.024689717
27	0xbc5724ef	-0.013131364
28	0x3cbddb8a	0.023175973
29	0x3da3822c	0.07983813
30	0xbcdfbb93	-0.027311122
31	0x3d1530ee	0.036423616
32	0xbcbffd27	-0.023436142
33	0x3cd7147d	0.026254887
34	0xbd1e7bf4	-0.03869243
35	0xbc905b97	-0.017621798
36	0x3c28d207	0.010303981
37	0xbd1c160e	-0.03810697
38	0xbd52d01b	-0.051467996
39	0xbd060f19	-0.032729242
40	0x3d088119	0.033326242
41	0x3d1c6529	0.03818241
42	0x3daae850	0.08345091
43	0xbd6da597	-0.058019247
44	0x3c167184	0.009182338
45	0xbdd7b200	-0.10531998
46	0x3c9c7bc8	0.019101992
47	0x3d85a890	0.06526291
48	0x3c970278	0.018433794
49	0x3c07956b	0.00827537
50	0xbcfd53a3	-0.03092367
51	0xbc4851db	-0.012226547
52	0xbc1ad78f	-0.009450807
53	0xbd137cad	-0.036007572
54	0xb9af1eac	-0.00033401453
55	0x3d13ffd9	0.036132667
56	0xba9533e1	-0.0011383259
57	0xbd2f2992	-0.042764254
58	0xbd96b6b1	-0.07359064
59	0x3d341996	0.043969713
60	0x3c89a4f0	0.016802281
61	0xbd7a3344	-0.061084047
62	0xbc52377a	-0.012830609
63	0xbd78369a	-0.060598947
64	0x3cb1a74c	0.021686219
65	0xbbe9e725	-0.0071381503
66	0x3aaadec8	0.0013036365
67	0xbc4910f0	-0.012272105
68	0x3d2e9290	0.04262024
69	0xbcf65322	-0.030068938
70	0x3d72123b	0.059099417
71	0xbba46dd1	-0.005017974
72	0x3c2f7843	0.010709825
73	0xbd317b1c	-0.043330297
74	0x3b05804f	0.0020370667
75	0x3d756cab	0.059918087
76	0xbd248ff7	-0.040176358
77	0xbd3fe015	-0.04684456
78	0x3d06eb5a	0.032939292
79	0x3b62055b	0.0034488055
80	0xbd0ed0b0	-0.03486699
81	0x3d42505b	0.047439914
82	0xbc6300d4	-0.013855178
83	0xbcae72e9	-0.021295028
84	0xbdbefdc2	-0.09325744
85	0xbd122e06	-0.035688423
86	0x3c1a7662	0.009427639
87	0xbd4d1d69	-0.050076876
88	0xbd37e5c4	-0.044896856
89	0xbc73fd3b	-0.014891918
90	0xbb1083ce	-0.0022051218
91	0xbd2f285d	-0.042763103
92	0x3cf2524e	0.029580262
93	0xbd154b34	-0.036448672
94	0x3d46e46d	0.048557688
95	0x3c0c2419	0.008553528
96	0xbd4f6038	-0.05062887
97	0xbd590914	-0.052987173
98	0xbd2b0f68	-0.04176274
99	0x3d657e64	0.05602874
100	0x3df39164	0.118929654
101	0xbd1a88ec	-0.037728235
102	0xbd41d67f	-0.0473237
103	0xbd4dba09	-0.050226245
104	0xbd555b9e	-0.052089326
105	0x3d362005	0.04446413
106	0xbb24b02b	-0.0025129418
107	0xbd13f807	-0.03612521
108	0x3d140414	0.0361367
109	0xbd1ce0e1	-0.0383004
110	0xbd3589bf	-0.044320818
111	0x3d3537df	0.044242736
112	0xbc8a0c71	-0.016851636
113	0xbb939b0f	-0.0045045684
114	0xbd724338	-0.059146136
115	0xbe06de9e	-0.13170859
116	0x3b39dcaa	0.0028360286
117	0xbcfb7bd9	-0.030698704
118	0x3dade46e	0.08490835
119	0xbcacfd52	-0.021116886
120	0x3c68da25	0.014212166
121	0xbb29f060	-0.0025930628
122	0xbd43e657	-0.04782709
123	0x3d800e50	0.0625273
124	0x3d525942	0.051354654
125	0x3c1775a5	0.009244357
126	0x3b899d53	0.0041996627
127	0xbbeeacb6	-0.0072837723
128	0x3b2228a9	0.0024743474
129	0x3b8655ef	0.0040995996
130	0x3c057726	0.008146083
131	0x3d0cba1b	0.03435717
132	0x3cb7dfb6	0.02244554
133	0x3da33706	0.07969479
134	0xbc996c9a	-0.018728543
135	0xbb3ba1d3	-0.002863039
136	0x3d565ab7	0.052332606
137	0xbd5da3ae	-0.054111175
138	0xbcaa127f	-0.020760773
139	0x3b698f33	0.0035638332
140	0x3bcab02c	0.006185552
141	0x3d766461	0.060154323
142	0x3cc49bcf	0.024000077
143	0x3bf1428f	0.0073626707
144	0x3af4808d	0.0018654034
145	0xbd5b2cb6	-0.053509437
146	0xbd32253c	-0.04349254
147	0xba16aa09	-0.0005747383
148	0xbd007755	-0.031363804
149	0xbd33ef96	-0.04392966
150	0xbd6c07a2	-0.057624467
151	0xbd2ec92f	-0.042672332
152	0x3dbc446d	0.09192739
153	0x3e008259	0.12549724
154	0x3c8b9f5a	0.017043758
155	0x3d7e9929	0.062157784
156	0xbd53f0d4	-0.051743343
157	0x3d96aafc	0.073568314
158	0xbd0b02d0	-0.03393823
159	0xbd31e9d2	-0.04343588
160	0xbd2d3ac5	-0.042292375
161	0xbd5abad4	-0.05340083
162	0xbd49202d	-0.04910295
163	0x3d03eadd	0.032206405
164	0xbd8d0c41	-0.06887103
165	0xbd4c8d35	-0.049939353
166	0xbc8786db	-0.016543796
167	0x3d256436	0.04037877
168	0xbc13aab2	-0.009012865
169	0xbc24b185	-0.01005209
170	0xbb028424	-0.0019915188
171	0xbc426851	-0.011865691
172	0xbd39c111	-0.045350138
173	0xbd55f66b	-0.052236956
174	0xbd6df0b4	-0.05809088
175	0x3d2127f5	0.039344747
176	0xbcbf4081	-0.023346188
177	0x3b53f290	0.0032340623
178	0xbb83598f	-0.004008479
179	0x3d4c93ba	0.04994557
180	0x3d3a2748	0.045447618
181	0xbcaa637e	-0.020799395
182	0xbd2fa95c	-0.042886123
183	0x3d231275	0.039812524
184	0xbd52d59b	-0.05147324
185	0xbc9cef2c	-0.019157015
186	0xbd05eede	-0.032698505
187	0xbc051bc4	-0.008124296
188	0x3d8c339b	0.068457805
189	0x3d1d9c5a	0.038479187
190	0x3b3ac88f	0.002850089
191	0x3c88fd0f	0.01672223
192	0x3ccceede	0.025016245
193	0xbc0519eb	-0.008123855
194	0xbd1cd181	-0.038285736
195	0x3d122293	0.035677504
196	0x3b24a8fa	0.0025125132
197	0xbd63272e	-0.055457287
198	0xbd215ab6	-0.03939315
199	0xbce063b9	-0.027391301
200	0xbcb96034	-0.022628881
201	0xbcfb9cb9	-0.03071438
202	0x3c6db67e	0.014508842
203	0xbd195e6a	-0.037443556
204	0x3b39d70c	0.0028356938
205	0x3bb88cba	0.0056320103
206	0x3acb0199	0.0015488147
207	0xbc2ba500	-0.010476351
208	0x3d513562	0.0510763
209	0xbd30399b	-0.043023687
210	0xbd178e1b	-0.037000757
211	0xbc444f43	-0.011981788
212	0xbc2d7aa4	-0.010588322
213	0x3b9f320f	0.0048582624
214	0x3db2fdaf	0.087397926
215	0x3d874933	0.066057585
216	0xbbc79be6	-0.0060915826
217	0xbcd98f9a	-0.026557732
218	0x3d31a237	0.04336759
219	0x3daae408	0.08344275
220	0xbc8f9590	-0.017527372
221	0xbc983f28	-0.018584803
222	0xbd4edc89	-0.050503287
223	0x3cdbfd1b	0.026854089
224	0x3d8740bd	0.06604145
225	0x3d1b34d4	0.037892178
226	0xbd3b305c	-0.045700416
227	0xbd3fa7f3	-0.04679103
228	0xbd3f5e61	-0.046720866
229	0xbbd4f9f4	-0.0064995233
230	0x3d088631	0.0333311
231	0xbd5de60a	-0.05417446
232	0x3b4a79ce	0.0030895355
233	0xbc99097c	-0.01868128
234	0xbaf05875	-0.0018336909
235	0xbcbb82bc	-0.022889487
236	0x3b90155c	0.0043970775
237	0xbd507681	-0.050894264
238	0x3cead4d9	0.028665947
239	0xbcd7409f	-0.02627593
240	0x3c491cb9	0.012274914
241	0xbd36e8e6	-0.044655703
242	0xbda26114	-0.079286724
243	0xbd6b378f	-0.05742603
244	0x3d92ed14	0.07174125
245	0xbc684d6d	-0.014178616
246	0xbb5188ef	-0.0031972488
247	0xbd57f9e8	-0.052728564
248	0x3b82284a	0.003972088
249	0xbd1bed24	-0.03806795
250	0x3cd28f33	0.025703048
251	0xbd423738	-0.047415942
252	0xbc810774	-0.015750624
253	0xba0da87e	-0.00054038304
254	0x3bdf4982	0.0068141827
255	0xbd1911f6	-0.037370645

fc3.bias f4 [2]
0	0x3d55a9d2	0.052163906
1	0x3c6b10b4	0.014347244
