critic.pth (torch_old, 580646 bytes, 5 tensors)

fcs1.weight f4 [512, 24]
000000 65 be 88 3d e4 8e bf 3d d2 1e 4a 3b 61 eb 8c bc
       0.0667694 0.09353426 0.0030841124 -0.017202081
000010 d1 2c df bc 58 e5 60 be a1 69 89 bb e3 86 ce 3c
       -0.02724305 -0.21962488 -0.0041935 0.025210803
000020 00 c9 ef 3d cf cc cf 3d 80 d3 3e bc ba 0c b4 3c
       0.117082596 0.10146486 -0.011647105 0.021978725
000030 b7 88 7e 3d 3a cc 32 bd 18 26 0c 3c 75 ba 8f bc
       0.0621421 -0.043651797 0.008554004 -0.017544964
000040 5f 23 88 3e 18 7b 1b 3e ac eb 10 bd 70 a5 23 bc
       0.26589486 0.15183675 -0.035381004 -0.009988174
000050 d2 ee 4d 3e bf c6 f3 3d a0 dc c2 3c 19 13 28 bc
       0.20110634 0.11903142 0.023786843 -0.0102584595
000060 7b b8 fa 3d c8 8a 28 be 49 4a e7 bb d2 9c ac 3d
       0.12242218 -0.16459191 -0.007058416 0.084283486
000070 6f 31 15 bd e4 2d e3 3d d4 48 e8 bc ad 3e 32 3d
       -0.036424097 0.11092737 -0.02835504 0.043516804
000080 eb d1 04 3e 88 30 28 be 18 e7 98 3d 09 d9 83 3c
       0.12970702 -0.16424763 0.07465953 0.016094701
000090 d6 17 74 bd 30 3b de bc bd 21 4f 3c 45 43 91 3c
       -0.059593044 -0.027127832 0.012642321 0.017732272
0000a0 81 64 09 3e 86 2e fc bd 34 ef 95 3a c8 18 01 3d
       0.13417245 -0.12313561 0.0011439086 0.031517774
0000b0 b9 99 12 be 3e 9e 6a be df 84 89 3c a1 9c 68 3d
       -0.14316453 -0.22911927 0.01678699 0.056789998
0000c0 b5 20 99 3d c4 16 06 be 2d 90 20 3d 7e 7e fc bc
       0.074769415 -0.13094622 0.039199997 -0.030822035
0000d0 5e 4f 66 39 52 36 1c be dc 6b ec 3c 75 c2 8d bb
       0.00021964076 -0.15255097 0.028860025 -0.0043261596
0000e0 c2 07 00 3d 06 f9 1b be c4 fd d1 bc 4c c2 53 bd
       0.0312574 -0.15231714 -0.0256337 -0.051698968
0000f0 0d 56 9a 3c be 69 53 be 31 39 90 bd 2a 60 0c bd
       0.01883986 -0.20645806 -0.070421584 -0.034271397
000100 f5 23 6d bb 41 28 b5 bd 65 31 92 b9 af 28 10 be
       -0.0036184762 -0.088455684 -0.00027884092 -0.1407802
000110 ad 26 6b 3e 3d f9 f5 3c 6b 96 9e 3a 5d 71 1c be
       0.22963972 0.030026073 0.0012099271 -0.1527762
000120 43 24 b3 bd 95 f4 46 3e 06 a5 e8 bc 5e 3b f1 3d
       -0.08747151 0.19429238 -0.028399002 0.117789015
000130 be 46 2c bd 2a 0a 48 bd b7 10 c6 3c 47 9a d1 3d
       -0.042059653 -0.04883782 0.024177892 0.10234504
000140 3e 04 80 bd 7b 99 5d 3e 6e bf d3 bc 16 93 a0 38
       -0.06250809 0.2164058 -0.025848117 7.6567914e-05
000150 7e b8 ce 3d b8 c2 ca 3d fe 93 25 3c e1 30 47 3c
       0.10093783 0.09900421 0.010106085 0.01215765
000160 44 a7 03 3b 7c c6 81 3e b8 b4 2e 3c 62 c1 fe bd
       0.0020088712 0.25346744 0.010663204 -0.124392286
000170 44 92 99 3e 6c 5e 6c 3e 5f 64 52 bc 86 4f 1e be
       0.29994404 0.23082894 -0.012841313 -0.15460023
000180 0b 67 70 3c 17 8a ca bc 78 9c 06 3b 6d ab c9 bd
       0.014673005 -0.02472405 0.002054004 -0.0984715
000190 72 fd 5f bd 68 13 cc bc bb a4 04 bd 6f 1e b2 bd
       -0.054685064 -0.024911597 -0.03238366 -0.08697211
0001a0 d2 2f 58 3e e0 47 48 3d a6 6b cd 3c b9 5e 4f 3c
       0.21111992 0.04889667 0.025075745 0.012656861
0001b0 8e 71 cc ba 1c ed b6 3d 0b f0 a9 3c c9 6a ec ba
       -0.0015597807 0.08931944 0.020744344 -0.0018037196
0001c0 47 fc 86 3e 81 b5 88 3d 23 80 42 bb 4b 16 e6 3c
       0.26364347 0.06675244 -0.0029678426 0.028086802
0001d0 01 fa 80 3e a2 68 01 3e 2f 7a 4c bd 87 d1 84 3d
       0.25190738 0.1263757 -0.04992121 0.06485277
0001e0 a0 82 56 3e 3b 9d 5a 3e 36 fc 02 bd 21 8b 17 3e
       0.20948267 0.21349041 -0.03197881 0.14799167
0001f0 51 c5 9c 3d 5a 2e 1d be 69 37 42 3c 73 d5 07 3e
       0.076548226 -0.15349713 0.011854031 0.13265018
000200 a9 b1 50 3e 55 dc 90 3e 01 fd 76 3c 10 b1 a1 3d
       0.20380272 0.282931 0.015074969 0.078951
000210 e1 77 e4 3d 49 d8 08 bf 98 5f 6c bd 41 17 88 3d
       0.111556776 -0.53455025 -0.057708353 0.0664506
000220 71 2d 39 3e 74 e3 9e 3e eb 48 03 3d e7 01 4e 3d
       0.18083741 0.31032908 0.032051962 0.050294783
000230 07 6a fb 3d be 92 ad be 27 1b 1a bb db dc 18 ba
       0.122760825 -0.33901018 -0.002351472 -0.000583125
000240 c7 15 86 3d c3 7c a3 3e 46 ba 5a bc c7 57 d4 bd
       0.065471224 0.31931123 -0.013350075 -0.10368305
000250 20 77 d5 3d ce e0 bd bd d3 2a 1e bc 0e 92 b9 bd
       0.10423112 -0.09271394 -0.009653765 -0.09061061
000260 12 cd 0f 3d e8 04 0c 3e 4f 87 09 3d 4f bf 28 bd
       0.03510768 0.13673747 0.033576306 -0.04119807
000270 ea 09 77 3e 83 71 03 be 5d b0 4e bc 13 93 20 bd
       0.24124876 -0.1283627 -0.0126152905 -0.03920276
000280 0d bc 99 bd a8 d2 8b 3d 9d 7e 1f bc 00 80 1b 3d
       -0.07506571 0.06827289 -0.009734777 0.037963867
000290 d8 5f 51 3c 94 8d 56 3e e7 dd 1e 3c a5 12 8c 3c
       0.012779199 0.20952445 0.00969646 0.017098734
0002a0 ff e9 4a bd 4f 30 09 3e 4e 85 ef bc 7b 77 6c bc
       -0.049539562 0.13397335 -0.02923837 -0.014432783
0002b0 54 35 a3 3d d5 6e ad bd 4e 00 3a bd 35 db 82 bb
       0.07969156 -0.08468405 -0.045410447 -0.0039934167
0002c0 e7 7b 25 bd b0 16 36 3e 93 f8 ef 3c 34 5d 17 bc
       -0.040401366 0.17782092 0.029293334 -0.00923853
0002d0 ba 55 13 bc 6a cc 5c be 38 48 7b bb af a9 93 3b
       -0.008992607 -0.21562353 -0.0038342606 0.004506312
0002e0 0f 4b 52 bd fc 73 eb 3d 29 5f 0e bc ab d2 0e 3d
       -0.051341113 0.11496732 -0.00868968 0.034868877
0002f0 7d 6c 8f bb ea 7b fe be 53 4b 09 bc fb 06 cd bb
       -0.0043769465 -0.49703914 -0.008379775 -0.0062569357
000300 ff 27 f6 3c 02 f1 97 be c0 b4 87 3b ec ae 4e bd
       0.030048368 -0.29676062 0.00414142 -0.050459787
000310 a9 4b 89 bd 57 48 05 be e3 54 ef 3c c6 f0 60 3c
       -0.06703884 -0.13015877 0.029215282 0.01372928
000320 70 a1 ba 3d e2 39 ae be 0c c5 5e 3d ac 44 29 3d
       0.09112823 -0.34028536 0.054387137 0.041325256
000330 9c ca ef 3c 32 c6 92 be 46 bc a4 bb b0 93 4f 3d
       0.029271416 -0.28666836 -0.0050273268 0.050677955
000340 22 d8 b5 3d 94 2b 98 be 45 57 ca 38 90 00 02 3e
       0.08879115 -0.29720747 9.648366e-05 0.12695527
000350 05 2b d9 3d c2 1f b1 be 1e 1e 86 3c 16 39 c3 3d
       0.106039084 -0.34594542 0.016371783 0.09532373
000360 50 30 c8 3d 5a 16 0c 3e c6 9a 11 3c d8 bd 08 3e
       0.0977484 0.13680401 0.0088869985 0.1335367
000370 5f 79 b1 bc ef 56 1b bf c4 cf 17 3c d4 09 dc 3d
       -0.02166432 -0.60679525 0.009265844 0.10744062
000380 ba dc 1d 3e 9d 3e 19 3e 7e 4e a7 3c b1 b3 17 3e
       0.15416232 0.14965291 0.02042317 0.1481464
000390 7f 10 ae bd c6 cc 34 bf 6e 8b 24 3d bf 1d 0b 3e
       -0.0849924 -0.7062496 0.040172033 0.13585566
0003a0 68 74 29 3e 90 c2 31 3e 01 44 a6 3c 1f 39 64 3d
       0.16548312 0.17359376 0.020296099 0.055718537
0003b0 cd 7a 97 bd 59 d1 ac be ac 5c c5 3c 6b c2 87 3d
       -0.07396469 -0.3375347 0.024092041 0.06628879
0003c0 e3 86 6e 3d 7e 16 d4 3e 1f fa c6 3c 86 fc d3 bc
       0.058234107 0.4142341 0.024289189 -0.025877248
0003d0 85 4f 46 bd 09 9a 20 3d 83 c5 5b bd 42 bd 0b bd
       -0.04841568 0.0392094 -0.05365516 -0.034116037
0003e0 fe 49 78 3d 07 35 d4 3e 3f ca 48 bc 7c 69 bf 3b
       0.06061744 0.41446707 -0.0122552505 0.005841432
0003f0 41 11 05 bd a9 a9 e6 bd 3d bc 81 3d c8 e8 4a 3c
       -0.032487158 -0.11262829 0.06334732 0.012384601

fcs1.bias f4 [512]
000000 d1 12 a3 be cb 01 9b 3d d9 19 84 be fd 1e 06 be
       -0.31850293 0.07568701 -0.2580097 -0.13097759
000010 e4 ec d4 be d9 e4 ba be 4b 6e a3 3d 3c b2 1b be
       -0.41586983 -0.36502722 0.07980021 -0.1520471
000020 fd 6c 92 bb 44 2a 93 be a7 8d 49 be 1c 55 5a bd
       -0.004468559 -0.28743184 -0.19682942 -0.053303823
000030 47 53 33 be 76 2d 2d be 9c d0 7d be b0 63 25 bd
       -0.17512237 -0.16911873 -0.2478661 -0.040378273
000040 48 85 a1 3d 46 a4 03 be f0 98 64 be 5d 8a 35 be
       0.078867495 -0.12855634 -0.22323966 -0.17728563
000050 aa c2 4b 3e 4b 50 ab be 40 4f 46 be 2c f7 90 3e
       0.19898477 -0.33459696 -0.19366169 0.28313577
000060 23 0e 8a be 40 f9 fe 3d 85 c5 ff be f2 c8 b8 3d
       -0.2696391 0.124498844 -0.49955383 0.09022702
000070 28 21 74 3d ca e1 ce bd 76 44 97 be bd 63 24 be
       0.059601933 -0.101016596 -0.2954442 -0.16053672
000080 6e d9 9d 3c 15 b1 2e bd 70 de 1c be 84 29 8b be
       0.019268718 -0.042649347 -0.15319228 -0.2718011
000090 a5 69 02 be 01 86 2d 3e 71 29 aa bd 89 44 d0 bb
       -0.12735613 0.1694565 -0.083086856 -0.0063558263
0000a0 d9 48 67 be 2b c1 6b 3e b9 ca 0e bd 2e 4a 5b be
       -0.22586383 0.23022906 -0.0348613 -0.21415016
0000b0 ec 39 a5 be 6b df fe 3d 56 9c a8 bd b9 cc b1 be
       -0.32270753 0.12444957 -0.08232944 -0.34726503
0000c0 ef 6d 19 be 6c 8d 50 bd 10 eb 01 be d4 b9 45 3c
       -0.14983343 -0.05091612 -0.12687325 0.012068231
0000d0 70 df 3f be 0a d6 4b 3d c0 ec 4d be 67 5f 62 bd
       -0.18737578 0.04976467 -0.20109844 -0.055266764
0000e0 56 68 86 3d 03 f3 29 bd 56 4f 22 bf d7 c8 11 3c
       0.06562869 -0.04149152 -0.6340231 0.008897982
0000f0 8b 20 9b be 87 ba a6 bd 45 f0 bc 3a 09 4d ca 3d
       -0.30298266 -0.08141046 0.0014414868 0.098779745
000100 9a 41 b8 3d 71 76 9e 3d f4 77 48 bd da 4e 73 bd
       0.089968875 0.07737435 -0.04894252 -0.05940137
000110 25 ab 9b bd d2 55 2b 3e 65 22 05 3e 00 04 14 be
       -0.076010026 0.16731957 0.13001402 -0.14454651
000120 9f 70 e6 bb 00 a6 8d 3e 06 d5 cc bc c7 6f d3 3d
       -0.0070324684 0.2766571 -0.025003921 0.10324054
000130 66 fd 79 3d b8 06 0a be 94 f3 5a be 80 71 99 3c
       0.061032675 -0.13479125 -0.2138198 0.018730879
000140 57 b1 96 bc f4 ef 66 3d ab 4c d7 bb 43 c1 0e bf
       -0.01839511 0.05638118 -0.006570419 -0.55763644
000150 d7 b9 52 3e 40 98 8c be f6 97 43 be 07 dd 35 3e
       0.20578705 -0.27459908 -0.19100937 0.17760096
000160 52 a6 71 3d b7 23 07 3e b8 d7 25 be 5a 70 08 bd
       0.058996506 0.13197218 -0.16195571 -0.03331027
000170 da b1 9c bb 49 5b 00 3e 96 25 cb bd 14 08 f5 3d
       -0.0047819437 0.12534823 -0.09919278 0.119644314
000180 bc 7f 09 be 2c a3 80 3e ea b4 dd 3d c2 c4 50 bd
       -0.13427633 0.2512449 0.10825522 -0.050968893
000190 52 b5 76 be 1a eb 22 bd 07 8e f5 3d fc 01 2b be
       -0.24092606 -0.03977499 0.1198998 -0.16699976
0001a0 e6 2a 6a 3b 42 32 f8 bd 5e 05 fe bd 4f e8 f6 3d
       0.0035731136 -0.12118961 -0.124033675 0.12056028
0001b0 6a de 83 3b d5 82 25 3b 57 7f 9f 3e e6 7f 2b be
       0.0040243166 0.0025254984 0.3115184 -0.16748008
0001c0 54 13 85 be 54 2e b4 bb 98 09 3d be fb 15 c1 bd
       -0.2599131 -0.005498687 -0.18460691 -0.094280206
0001d0 b8 98 d3 bd c2 fe 05 be 89 ca 0f bd 13 c5 5b be
       -0.10331863 -0.13085464 -0.035105262 -0.21461897
0001e0 62 f4 93 be a3 8e 00 be 58 84 e5 3c f5 86 fb bd
       -0.28897387 -0.12554412 0.028017208 -0.122816004
0001f0 c5 29 17 be 40 98 72 3d 3d 07 57 be 25 54 65 3e
       -0.14762028 0.05922723 -0.20998855 0.2239538
000200 4c 04 3c 3e 1a b2 50 3d 8a 6e 77 be a6 1d 83 bd
       0.18361014 0.0509511 -0.24163261 -0.06402139
000210 64 96 9d be 2c bd 24 be ac 36 b9 bd 42 05 46 be
       -0.307788 -0.16087788 -0.09043631 -0.19337943
000220 4c 3c 53 bc fe 28 df bd 2a 33 4a bc d6 e8 06 be
       -0.012892794 -0.108964905 -0.0123413 -0.13174757
000230 cc d0 13 3e e5 f3 f8 3d d3 db 81 3d 4b d9 b2 be
       0.14435118 0.12155894 0.06340756 -0.34931406
000240 8d 4f 40 be 2a 6e 92 be 53 de b2 3d 5b 59 e7 3c
       -0.18780346 -0.28599674 0.08733811 0.02824085
000250 fb 6d 80 bd 6b 38 97 3e 57 af ad 3c 7d e4 80 3e
       -0.06270977 0.2953523 0.021201773 0.25174323
000260 41 56 29 be ff da b5 3d 06 09 bc be 79 66 eb bd
       -0.1653681 0.08879661 -0.36725634 -0.114941545
000270 4c bf 69 bc f9 a1 35 be 65 53 d3 3d 17 f4 9b be
       -0.0142668 -0.17737569 0.103186406 -0.30459663
000280 9c 02 39 be b8 0a a2 be 83 ad 1e 3e 53 50 9a be
       -0.18067402 -0.31648803 0.15495877 -0.30139408
000290 04 fe 97 be 7f c9 92 bb 3b 69 51 be 5c 31 89 be
       -0.29685986 -0.0044795866 -0.20450298 -0.2679547
0002a0 d4 55 86 3d 03 5f 84 3d 12 9b 46 3e 73 ef 04 3d
       0.06559339 0.064634345 0.19395092 0.03245492
0002b0 28 11 80 be 2b c3 8a be 2f 28 45 be a8 33 36 be
       -0.2501309 -0.27102026 -0.1925361 -0.17793143
0002c0 57 58 87 3d 20 3c 54 be 5c af a3 3d 31 ad 1b be
       0.06608646 -0.20726061 0.079924315 -0.15202786
0002d0 c9 ef 47 3e af c2 96 3d 81 20 a5 3d 70 7d f7 bd
       0.19525065 0.07361352 0.0806284 -0.12084472
0002e0 b2 a9 1d 3e 7d a2 43 3c df 6b e1 bd dc 98 14 be
       0.15396765 0.011940596 -0.11006903 -0.14511436
0002f0 32 0b 08 3e bf 93 a0 be 32 d6 55 3e e3 aa 8e 3c
       0.1328552 -0.3136272 0.2088249 0.01741547
000300 18 df e5 bd c7 5d 60 be 50 80 32 be e5 7b 06 3d
       -0.112241924 -0.21910773 -0.1743176 0.032833
000310 2d c9 63 be 95 e6 ce 3d 63 7a 18 bd 09 2a a3 be
       -0.22244711 0.10102574 -0.037226092 -0.31868008
000320 fd e8 72 3d 60 76 5a be fa e0 4b be 4c c0 0e be
       0.059304226 -0.21334219 -0.1991004 -0.13940543
000330 b2 6f 79 3d 31 5b 84 be ea 8b 7f be 60 d1 06 bc
       0.060897537 -0.25850824 -0.24955717 -0.00822863
000340 d8 2a 8c bd 14 db 0d be 0b 47 62 be e4 23 8e bc
       -0.06844109 -0.13853103 -0.22097413 -0.017351098
000350 3d 00 31 3e bb 1b 1b be 07 0a ea bd f1 b2 fd bd
       0.17285247 -0.15147297 -0.11427694 -0.12387646
000360 06 56 0a be 5f 6f 3e 3e 30 a2 cb bc fe 89 0d be
       -0.13509378 0.18597172 -0.02485761 -0.13822171
000370 f8 6b 87 bd b0 4d aa bd 71 84 e3 3e 6d 52 54 be
       -0.0661239 -0.08315599 0.44436982 -0.20734568
000380 09 71 1f bd f7 b1 6f 3e 5e 72 3c 3d b7 eb 48 be
       -0.038926158 0.23407732 0.046007507 -0.19621168
000390 6b 40 82 be 17 5b d1 3d c5 80 80 be 4f 2c a8 be
       -0.25439772 0.10222452 -0.25098243 -0.32846305
0003a0 46 be 37 3e 29 0f aa be 94 39 8d 3e a9 da ad be
       0.17943677 -0.3321469 0.2758299 -0.33955887
0003b0 12 54 cd be 14 5d 3e ba 49 68 1c 3d 53 45 33 be
       -0.40103203 -0.00072617945 0.03818539 -0.17506914
0003c0 d9 c8 2a 3b 4a a1 1e be 81 13 3f be f4 f1 c3 be
       0.0026059656 -0.15491214 -0.18659784 -0.38270533
0003d0 4b 01 c9 be b5 84 5c be 5b 51 6a 3e b3 f8 56 be
       -0.392588 -0.21534999 0.22882597 -0.20993309
0003e0 7b a1 a6 bd 34 b6 83 be 53 d4 0f be ce 90 17 3e
       -0.08136269 -0.25724947 -0.14045839 0.14801332
0003f0 af c8 b4 3d 65 5a 4b bd bb e1 10 3a 51 fe 80 be
       0.0882734 -0.049646754 0.00055268005 -0.25194028

fc2.weight f4 [256, 514]
000000 74 45 e2 3c 78 5d 94 bb 99 13 1d 3d 22 72 21 bd
       0.027621008 -0.004527744 0.038348768 -0.039415486
000010 e2 9d fd bc 3d 23 68 bc f8 0f 35 3c 5e e6 0b 3d
       -0.030959073 -0.014168558 0.0110511705 0.034155242
000020 d9 01 c7 3b 4b f6 9b bc f3 fb 78 3b 57 85 a4 ba
       0.0060732183 -0.01903834 0.003799197 -0.0012551945
000030 76 f6 51 3c 8b 2a 1b bd 6f ba 40 3c a0 05 e6 3a
       0.0128151085 -0.03788237 0.011763199 0.0017549284
000040 a7 fa 15 3c 8a 95 6d bd 51 4f f4 bc 5f 8f 31 3d
       0.009153998 -0.05800394 -0.029822977 0.04334962
000050 35 e8 47 bd b6 0e c0 3b a9 d8 2b 3d f3 aa d1 bc
       -0.048805434 0.0058611287 0.04195467 -0.02559421
000060 43 02 18 bd 0f 08 e5 bc c6 7d 8b 3c ba eb 09 3c
       -0.037111532 -0.027957944 0.017027747 0.008418018
000070 34 47 8a bd fd f4 4a bd fc d4 e5 bc 93 f9 66 bd
       -0.06751862 -0.049550045 -0.02805566 -0.056390356
000080 e5 14 49 bb cd 6d 39 3c 0d 6e 74 bd 39 74 0d 3d
       -0.003068262 0.011317682 -0.059675265 0.034534667
000090 7c ce 83 3c 6e 18 0b 3c 38 52 05 bc 7e 4c 2e 3d
       0.01608967 0.008489711 -0.008137278 0.042553417
0000a0 d9 d0 66 3d e1 2d 85 bc 8f b5 a1 bd 0d c0 4b bd
       0.056351516 -0.016257228 -0.07895958 -0.0497437
0000b0 db dd 40 bc 19 0b 36 3c 08 a1 48 3d 94 a8 e9 3c
       -0.011771644 0.011111044 0.048981696 0.028522767
0000c0 b1 45 40 3d ee 16 26 3d 9b f9 14 bd e9 83 de 3c
       0.046941463 0.04054921 -0.036370855 0.027162509
0000d0 32 28 66 bd 1a d1 2a bd 67 be e8 bb ab 41 13 bd
       -0.056190677 -0.04170332 -0.007102776 -0.035951298
0000e0 a1 73 cc ba 4d d1 52 3d 56 64 d8 3b c0 3e 5b bd
       -0.0015598425 0.051469136 0.006603758 -0.05352664
0000f0 b5 47 fa 3c 07 b0 b5 3c 7a e1 d8 bc a4 2e 82 bc
       0.03055177 0.022178663 -0.026474703 -0.01589138
000100 92 6d 71 bc 60 a5 08 bc f7 97 2c 3c 47 63 98 bc
       -0.014735596 -0.00834021 0.010534278 -0.018602027
000110 f3 f6 d7 3c 49 60 80 bd dd 0f 95 bd 38 37 ce 3c
       0.026362872 -0.06268365 -0.07278416 0.025172815
000120 d8 ad 01 3d 10 79 7d 3c 3d ea 3b bd 14 be a9 3b
       0.03165993 0.015470758 -0.045877684 0.00518013
000130 96 26 69 bc e0 b6 e7 bc 43 d2 d0 bc 60 a8 da 3c
       -0.014230391 -0.028285444 -0.025490886 0.026691616
000140 31 b7 15 3d b2 08 5d 3d 94 31 cb bc a4 4c 65 bd
       0.036551658 0.05396337 -0.024803914 -0.055981293
000150 8a 9e d0 3c 7a 1e cc bc b5 8d 00 bd a1 34 45 3d
       0.025466222 -0.024916876 -0.031385142 0.048145894
000160 26 0c cb 3c 2c 55 23 3d e9 72 c0 bb f3 09 f3 bc
       0.024786066 0.039876148 -0.0058730734 -0.02966783
000170 df 0f a4 bc 75 0a 8b bc 86 ec 08 bd cc 4b 43 3d
       -0.0200271 -0.01697276 -0.03342869 0.047679707
000180 96 56 35 bd f3 a6 ea bc 3e f2 b8 ba 12 4e 5a 3b
       -0.044272028 -0.02864406 -0.001411028 0.0033310694
000190 f8 55 13 bc 89 86 12 3c 85 ca 5f bd df 6d 09 3d
       -0.0089926645 0.0089432085 -0.054636497 0.033552047
0001a0 a5 0d 3b 3d d8 e0 2b bd f0 a2 7a bd 93 d5 0d 3d
       0.04566731 -0.041962475 -0.061190546 0.03462751
0001b0 ef c2 a2 bb 2d b7 66 bd ed e4 ee 3c 09 60 75 bd
       -0.0049670856 -0.056327034 0.029161895 -0.05990604
0001c0 70 ad 52 3d b8 2e 1d bd 45 86 63 3c 46 13 a7 bc
       0.051434934 -0.038374633 0.013886993 -0.020394932
0001d0 73 75 24 3a ae 76 01 bc be 2e 3f bd 46 18 ae bd
       0.0006273605 -0.007901831 -0.046675436 -0.085007235
0001e0 19 a7 80 3c 2a 12 44 3d 11 c5 f7 bc d2 c0 ac bc
       0.015704678 0.047868885 -0.030245336 -0.021088038
0001f0 fb 3a 0f bd 55 72 59 bb 92 8a 90 bd a5 9b 8a bd
       -0.034968358 -0.003317972 -0.0705768 -0.06767968
000200 bc e6 55 bc 25 86 86 bc 79 56 28 bc d4 c6 1b bb
       -0.0130555 -0.016421387 -0.010274523 -0.0023769634
000210 45 0e 9a bc cc bd 57 bd 93 23 24 bd 99 4c b5 bc
       -0.018805632 -0.05267124 -0.04007299 -0.022131251
000220 a0 09 eb 3b f8 04 03 3c 0c 28 36 3d 12 32 f7 bc
       0.0071727782 0.00799679 0.044471785 -0.030175243
000230 41 51 0b 3d c6 b6 54 bc 53 30 b2 3b b4 52 4f bd
       0.034013037 -0.01298303 0.0054378896 -0.05061598
000240 36 4c 63 3d b0 96 30 bb 70 b7 d4 b9 76 ba 05 3d
       0.055492602 -0.0026945285 -0.00040572463 0.032648526
000250 64 bc 4a 3d b2 f8 5d 3d 6e 97 d8 3b 3f 99 59 3c
       0.04949607 0.054192252 0.0066098487 0.013281166
000260 5e 44 fd bc e3 5d e0 3c 60 28 8c bd 80 01 69 bd
       -0.03091639 0.027388519 -0.068436384 -0.056886196
000270 ec 57 3e bd 9c bd 12 bd 9f 8b e3 b8 42 9d 5b bd
       -0.046470568 -0.035825357 -0.0001085021 -0.05361677
000280 cd bf d4 3b ba 63 53 bd 77 6e 86 bd 2a e7 05 3d
       0.006492591 -0.05160878 -0.06564038 0.03269116
000290 be 30 2e bd af c7 14 bd 85 e1 c2 bc 5d d0 76 3c
       -0.042526953 -0.036323246 -0.023789177 0.015064326
0002a0 df cd 09 bd 77 ba 46 bd ba 6f 5e 3d 35 bb 2d 3d
       -0.0336436 -0.04851767 0.05430577 0.042414863
0002b0 8a f9 41 bd 8b 02 13 3d 58 00 cb 3c 88 ca 7b bc
       -0.04735712 0.035891097 0.024780437 -0.015368111
0002c0 71 22 2f 3d 8f 89 83 bc ae 74 14 3d 3f 25 82 bd
       0.042757455 -0.016056804 0.036244087 -0.063547604
0002d0 3a 16 80 bd 91 e0 a6 bc 57 7c 8e bc d2 2d 08 3d
       -0.062542394 -0.020370753 -0.017393274 0.033246823
0002e0 eb 05 8a bc 13 5a d1 3b 39 61 8c 3c 5d c3 48 bd
       -0.016848525 0.0063889115 0.017136203 -0.049014438
0002f0 e7 92 8e 3c 2b ae 86 bd 13 51 ce 3c c9 87 6a bd
       0.017404033 -0.06576189 0.025185144 -0.0572584
000300 fa 44 ca 3c 09 5a c7 bb 70 2c 10 bd 53 59 0b ba
       0.024691094 -0.006083731 -0.03519863 -0.00053157395
000310 ce d0 4d 3d 4f 8b 5f ba 12 d9 9c 3c 92 ac eb 3c
       0.05024796 -0.00085275335 0.019146476 0.028768811
000320 92 0b 0c 3c 4d c4 c1 3a af 5f 16 bd f4 1a fa 3b
       0.00854768 0.0014783234 -0.036712345 0.0076326076
000330 b8 56 72 3b 67 ad 7d bd f3 91 44 3d 6e 6a 97 bc
       0.0036977958 -0.061932947 0.04799075 -0.018483367
000340 a4 b7 a8 3c 2f 8e 80 bc 6d 8d 73 bd df 1e 37 3c
       0.02059538 -0.015692798 -0.059461046 0.011176794
000350 1a 03 8c bd 6e 3b 41 bd 48 d9 78 bd 3c d0 2a 3d
       -0.06836529 -0.047175817 -0.06075409 0.041702494
000360 8a 9c 4e bd b1 b8 5f 3b 8e af 19 bd 57 3d 78 bd
       -0.050442256 0.0034137184 -0.037520938 -0.060605373
000370 0c fc 2b 3d 0e 86 cf 3c b8 a1 68 3d c9 e5 6b 3d
       0.041988418 0.025332477 0.056794852 0.057592187
000380 d6 f4 00 3d fe 14 f7 3b c5 1f c6 3c 61 b0 01 3d
       0.031483494 0.0075403443 0.02418507 0.03166235
000390 e0 2d 5a 3c 85 ba 38 bd 5e 3a 45 3d a4 7d 86 bc
       0.0133166015 -0.045099754 0.048151366 -0.016417332
0003a0 38 7e 92 3c 79 09 0f bd 58 b7 23 bd bd 6a f0 bc
       0.017882451 -0.034921143 -0.039969772 -0.029347772
0003b0 fc 27 0c 3d ff 19 8e bd f6 bd 76 3a 18 d7 43 bd
       0.03421782 -0.06938552 0.00094124617 -0.04781255
0003c0 ee 17 68 bd ea 55 63 3d f2 9e 85 bd a7 74 ea 3c
       -0.056663446 0.055501856 -0.06524457 0.028620077
0003d0 88 b0 4b 3d 32 f5 34 3d 26 6c e2 bc c3 ad 46 bb
       0.0497289 0.04417915 -0.02763946 -0.0030315972
0003e0 c5 ec a8 3c 68 fc 40 3d 79 74 4f bd 55 66 33 3c
       0.020620713 0.047115713 -0.050648186 0.010949691
0003f0 70 63 e6 bc 13 9b b2 3c b6 cd 76 3d 48 3b 4b 3d
       -0.028123587 0.02180246 0.060254775 0.049617082

fc2.bias f4 [256]
000000 a3 59 bb bc 98 09 1d 3b 89 3a 48 bd 65 ee ab bd
       -0.02286989 0.0023962017 -0.04888395 -0.083950795
000010 4f 5b 28 3d 17 a8 10 bd 80 b1 52 3a f6 06 89 bd
       0.041102704 -0.035316553 0.0008037314 -0.06690781
000020 c3 fa 9f bc f0 34 2e bd 6b 9c ae bc ff 13 44 bd
       -0.019528752 -0.042530954 -0.02131482 -0.047870632
000030 ba 6b 2b bd ac 6b 44 bc 63 7a ae bd c6 09 4d bd
       -0.041850783 -0.011988562 -0.08519437 -0.05005815
000040 02 f1 56 3d 17 11 9f bd 29 bf cd 3b 2b 0d 06 3d
       0.052475937 -0.077669315 0.0062788916 0.0327274
000050 68 6e 80 3d 78 47 4a bb 02 14 a6 3b dc 3e b6 bc
       0.06271058 -0.0030865353 0.005068303 -0.02224677
000060 0b e6 83 bd 6a 67 9c bc d1 36 79 bd 6b 6b a2 bd
       -0.064403616 -0.01909228 -0.060843293 -0.079306446
000070 aa 83 ab ba 18 c4 38 bc 16 e0 7a bd 45 30 a9 bd
       -0.0013085504 -0.011277221 -0.06124886 -0.0826116
000080 cb fc c3 bd ca 89 15 bd 82 f9 1c bc e7 58 34 bd
       -0.09569701 -0.03650836 -0.009580972 -0.044030096
000090 75 93 a4 bc 41 aa 7a bd 43 b2 dd bc 84 ba 3e bc
       -0.020089844 -0.061197523 -0.02706254 -0.0116411485
0000a0 cb e7 4f bc c2 07 93 bd 59 e3 9b bc 17 3f f7 bc
       -0.012689541 -0.07179214 -0.019029306 -0.03018145
0000b0 33 21 6e bd 8e ec 2e bd bc ec 03 3e 04 0d d1 3b
       -0.05813713 -0.042706065 0.12883276 0.0063797254
0000c0 6b ec bc bd 47 72 9e 3d 7e 3b d0 bd 10 e4 14 bd
       -0.09224781 0.077366404 -0.10167597 -0.03635031
0000d0 1c c4 52 bb ed c9 81 bc 47 16 25 bd 9d 83 1e 3e
       -0.0032160347 -0.015843356 -0.04030445 0.15479894
0000e0 71 59 18 be fb ae 79 bd 73 98 cd 3c 10 6a 9b bd
       -0.14877869 -0.06095789 0.025097108 -0.07588589
0000f0 af b7 47 bd 84 ca 58 bd 7b 4c 41 bc 6c 7f 03 bd
       -0.04875916 -0.05292751 -0.0117980195 -0.03210394
000100 44 24 60 bd 26 63 d7 bc 17 ac 6d bd bc 08 58 3c
       -0.054722086 -0.026292395 -0.058025446 0.013185676
000110 1e 89 dc 3b 94 ba 64 3b 6e 11 cf bd 83 bc eb bd
       0.006730213 0.0034901248 -0.10110746 -0.11510565
000120 46 b9 fc bc 5e 81 e3 3b 0b dd a0 bc b6 f1 1a bd
       -0.030850064 0.006942912 -0.019636652 -0.03782817
000130 f6 5b 0a 3d df 74 cd bd af 42 76 bc 95 9c 95 bb
       0.033779107 -0.10032057 -0.015030547 -0.004565785
000140 42 17 1e bd 39 85 7a bc 06 28 05 bd f0 a8 80 bd
       -0.0385964 -0.015290552 -0.032508872 -0.06282222
000150 cd 80 5c bd 1f 9a 08 bd f2 d2 94 bd 66 07 b0 bd
       -0.05383377 -0.033350106 -0.07266797 -0.08595161
000160 d1 8e 13 3e 0f cd 5a bd ef 31 0b 3d f3 35 e4 bc
       0.14409949 -0.053418215 0.033983167 -0.027857756
000170 db 07 92 bd 8e 75 64 bd 88 5a 4e bd 71 bd 74 bd
       -0.071304046 -0.05577617 -0.050379306 -0.059750978
000180 c8 14 47 3d b8 3b cf 3b 68 6d 39 bd 9d be a5 bb
       0.048603803 0.0063242577 -0.045270354 -0.0050581233
000190 dd b9 1c bd 15 29 86 bc d3 f6 b2 3d 25 32 ae bd
       -0.03826319 -0.016377011 0.08738484 -0.08505658
0001a0 3b 02 39 3c 6e 42 3d b9 60 a7 77 bc 8f 6b 93 3d
       0.011292036 -0.00018049192 -0.015115589 0.071982495
0001b0 ba 6f e7 bb ca 6d 48 bd 2b ed 18 bd d8 5c 33 bd
       -0.0070628794 -0.048932828 -0.037335556 -0.043789715
0001c0 47 81 6c bc 08 2c 8b 3d 48 76 33 bc f8 72 5b 3d
       -0.014435119 0.06795508 -0.010953493 0.05357644
0001d0 df 45 0c bd dd 3b a2 bd 6b 62 db bc f8 47 4a 39
       -0.03424632 -0.07921574 -0.026780328 0.00019291032
0001e0 a6 72 a4 bd 8e 49 f9 bc dd 50 96 bc ea 43 74 3b
       -0.0802968 -0.030430581 -0.018349105 0.0037271925
0001f0 1c b5 10 ba ba c2 b4 3c 5e bb fb bc 6e ff 92 bd
       -0.00055201515 0.02206551 -0.030728992 -0.071776256
000200 46 f8 90 bd 8a bc 0e bc 2f 3b d1 bd ed 17 4c bd
       -0.070786044 -0.008711943 -0.102163665 -0.049827505
000210 ac e5 84 b8 f0 50 2e 3d 1a 3b f0 bb 81 bf cc bb
       -6.33703e-05 0.042557657 -0.007331264 -0.006248415
000220 d6 3a df 3c 6c 2d 45 bd 1b 12 51 bd b7 cc f8 bc
       0.027249735 -0.04813902 -0.051042657 -0.030371053
000230 6d 0f ac bd a0 d2 8c bd 10 88 0d bd 77 7a 07 bd
       -0.0840138 -0.06876111 -0.034553587 -0.033075776
000240 02 f9 10 3c 7a 7c 7d ba 60 dd c9 3d f2 d2 d7 bc
       0.008848431 -0.00096697325 0.09856677 -0.026345704
000250 56 68 73 bd ce db 28 bc 0d 39 af bd 0a a1 94 bd
       -0.059425674 -0.010306312 -0.085558034 -0.07257278
000260 c1 c1 83 bd 54 42 5e 3e 91 92 1b bc da 64 88 bd
       -0.0643344 0.2170499 -0.009495393 -0.06659861
000270 f9 27 a1 bd 80 72 82 bd 70 9b 33 bd a1 20 8a bd
       -0.07868952 -0.063694954 -0.04384941 -0.06744505
000280 a4 6c ac bd 5b d7 f6 3b 79 87 0c bd 35 2e fe bc
       -0.08419159 0.0075329966 -0.034308884 -0.031027893
000290 d2 36 b3 3d be c0 ae bb 95 af 1d 3d 02 ea b4 bc
       0.087506905 -0.0053330353 0.038497526 -0.02208424
0002a0 83 53 28 bb d6 e7 e4 3c 8d 1b ec bd 8e ff f5 bc
       -0.0025684542 0.02794258 -0.115286924 -0.030029085
0002b0 5a d5 d6 bc fa 18 35 bd 9f 61 34 bd d1 66 b7 bc
       -0.02622478 -0.044213273 -0.04403841 -0.022387894
0002c0 27 b1 9c bc bb 8a 10 bd 25 a7 ad bd 15 4d 8a bd
       -0.019127442 -0.035288554 -0.08479146 -0.067529835
0002d0 04 8e 61 bc 46 58 9f bd 3d a1 bc bd 8b ce d3 bc
       -0.013766769 -0.07780509 -0.09210441 -0.025855323
0002e0 3f b7 09 bd 92 28 48 bc 6c 98 08 3e db f9 51 bd
       -0.033622023 -0.012216704 0.13339394 -0.05126367
0002f0 e9 f3 f5 ba e5 71 0b bd 57 ad 29 3e 39 8c d2 3a
       -0.0018764707 -0.034044165 0.1657003 0.0016063518
000300 32 20 80 bd 5d 39 82 bc 9c 5e 94 bc 11 d2 75 bd
       -0.06256141 -0.015896494 -0.01811152 -0.060014788
000310 f8 be 63 bb c3 bd b5 bc 1c 4b 88 bd e1 26 0f bd
       -0.0034751277 -0.022185212 -0.06654951 -0.034949187
000320 64 b0 67 bd 5a 67 b3 b9 9c 5b 74 bc 65 7f 54 bd
       -0.056564704 -0.00034218543 -0.0149144195 -0.051879305
000330 64 cb 85 bc ce 78 8b bc 98 f0 08 3e 41 c9 9f 3c
       -0.016332336 -0.017025378 0.13373029 0.019505145
000340 53 e2 2b bd 4c 90 1f bd 83 62 d7 3b 62 6c a8 bd
       -0.041963886 -0.03895597 0.006573023 -0.082237974
000350 b9 02 06 bc 4b 7b 82 bd bb 7b 19 bd ed 3f 8a bd
       -0.00817936 -0.063711725 -0.037471514 -0.06750474
000360 13 f3 16 3e 54 02 1d bd 53 c6 42 3d e9 2e 9c 3d
       0.14741163 -0.0383323 0.047552418 0.07626135
000370 85 96 77 bc 49 a0 f9 3b 26 17 8b bd 98 66 28 bd
       -0.01511157 0.0076179844 -0.067915246 -0.041113466
000380 24 b6 ff 3c dc f0 bd 3d c0 2c 8e bd 40 33 7c bd
       0.031214781 0.09274456 -0.06942129 -0.061572313
000390 d5 9d 97 bd 4d b7 59 bd 20 59 bb bc 24 d8 88 3c
       -0.07403151 -0.053153325 -0.022869647 0.016704626
0003a0 b8 0b c4 bb f6 94 a6 bc b8 6f 6a bd eb d5 5f bd
       -0.0059828423 -0.020334702 -0.05723545 -0.054647367
0003b0 62 15 08 bd ef df 55 bc 57 24 c2 3d ea 40 f2 bb
       -0.033223517 -0.013053878 0.094795875 -0.0073929923
0003c0 2f 80 72 bd 65 ad a1 bd 68 de 64 bd 94 ba 17 bd
       -0.059204277 -0.078944005 -0.055876166 -0.03704317
0003d0 76 48 cc 3b ae 42 2c bc 6d dd 2e bd c6 25 2d bd
       0.006234224 -0.010513945 -0.042691637 -0.04227235
0003e0 f2 b4 4f bc c3 e7 00 bc 12 12 25 3d 13 4d 0a 3b
       -0.012677418 -0.007867756 0.040300436 0.0021103069
0003f0 d9 11 88 bd 86 4f 09 3c e9 5e 92 bc 0f 8e 43 bd
       -0.06644029 0.008380776 -0.017867522 -0.0477429

fc3.weight f4 [1, 256]
000000 26 6f a6 3a 02 bc 1a 3b fb ff 90 bc f6 28 58 3c
       0.001269792 0.0023610597 -0.017700186 0.01319336
000010 8e c0 0b 3c ab 03 14 bd dc 2f 9a bc f1 06 a3 bc
       0.008529795 -0.03613631 -0.01882165 -0.01990077
000020 bf 2b 87 bb 85 7b 3c 3d 51 67 87 ba b9 d3 bd 3b
       -0.004125088 0.046016235 -0.0010330473 0.0057930616
000030 de 2d 23 3c e4 f8 d8 b9 fa ff 4c bd 18 b6 b1 bc
       0.009959666 -0.00041384168 -0.050048806 -0.021693274
000040 0d a6 4d 3d 7c 70 0e bb a9 64 5a 3d 23 75 57 3c
       0.050207186 -0.0021734526 0.053318653 0.013150486
000050 cd 35 c3 bc 5c 92 7c bc c5 a9 4f bb 9e 89 8e bc
       -0.023829365 -0.015415754 -0.0031686884 -0.017399605
000060 3e de 97 3c be 18 00 bd 1f e3 95 bb b0 54 5f bc
       0.01853859 -0.031273596 -0.004574194 -0.013631031
000070 c8 0f 85 3c 57 dd 87 bb 24 c1 9b bb 12 c3 6d bd
       0.016242877 -0.004146259 -0.0047532488 -0.05804736
000080 35 0b a7 bd 3f 82 9f 3b 7d 68 8a 3b cb 33 ec 3c
       -0.081564344 0.0048678215 0.0042238818 0.02883329
000090 a0 77 78 bc dc 73 ac bb 23 e8 11 bd 03 96 8a b9
       -0.01516524 -0.005262835 -0.035621773 -0.0002643318
0000a0 e8 85 86 3b 54 54 d4 b9 78 3c 22 3d ec d1 7d 3b
       0.0041053183 -0.0004049862 0.03960845 0.003872986
0000b0 28 a9 3f bd 08 6f 14 3c ce 36 06 3d 3b cf b8 3b
       -0.04679218 0.009059675 0.03276711 0.005639938
0000c0 9a e0 e6 bb b9 e0 7d 3d d4 45 d0 bc 92 29 02 ba
       -0.0070458176 0.06198189 -0.025423922 -0.0004965301
0000d0 ad 67 cc ba e1 84 07 bc cb 3f 8e 3b 16 10 1a 3c
       -0.0015594863 -0.008271427 0.004341101 0.009403249
0000e0 c5 3c d2 3c 46 8c b9 bc 5b f8 06 3b e8 cb 01 3d
       0.025663743 -0.022649895 0.0020594809 0.0316886
0000f0 56 dc 84 ba 4c 50 9f 3b 3a f3 20 3c c4 20 a4 3b
       -0.0010136466 0.004861867 0.009823615 0.005008789
000100 c8 30 3e 3b 73 b7 99 ba 7d bf 01 3c 4e a8 ae 3c
       0.0029020775 -0.0011727646 0.0079191895 0.021320488
000110 83 b5 f8 bc da 18 45 3b 3f 9c 99 3c 2b 36 8f bc
       -0.030359989 0.0030074627 0.018751262 -0.017481884
000120 49 c0 03 39 dc 76 15 bc 42 5c 8c bb 15 d1 90 3c
       0.00012564765 -0.009122577 -0.004283459 0.017677823
000130 2c cd 9f bd 41 42 55 3c ac e0 2d bb 44 49 c5 3c
       -0.07802805 0.013016284 -0.002653162 0.024082787
000140 71 26 e1 ba 1c 1d 9f 39 62 dd c2 bc 5f 80 91 bb
       -0.0017177594 0.0003034853 -0.023787204 -0.004440352
000150 49 54 38 3c e9 4b 03 3b e3 51 de 3c 97 9f dd bc
       0.011250564 0.002003426 0.027138656 -0.027053637
000160 54 24 26 3e 50 6d 04 3b ad 38 5a 3c 18 48 85 bb
       0.16224796 0.0020206757 0.013319177 -0.004067432
000170 0d 71 ee b9 64 09 76 bc 71 40 b3 3b b2 99 c4 3b
       -0.00045479127 -0.015016887 0.0054703285 0.005999767
000180 64 1b 98 bc d1 a9 f6 3c 8c 2c 5c 3c e1 12 f9 39
       -0.018567748 0.030110272 0.013438355 0.00047507047
000190 48 9e 18 3b e9 49 64 3b c2 1c c4 3d 3c 55 75 3b
       0.0023287702 0.0034834093 0.095757976 0.0037434837
0001a0 03 e6 89 bb bd c8 b7 3a 61 80 5e 3d d2 e1 20 3c
       -0.0042083277 0.0014021617 0.05432165 0.009819465
0001b0 62 57 42 3c 42 dc 1c bb 79 49 8a 3c ad 55 64 3b
       0.011861654 -0.0023934995 0.016880738 0.0034841106
0001c0 1a 66 42 bb 15 67 80 3c 6e a6 3e 3d a5 c4 e0 3c
       -0.0029662908 0.015674153 0.04654544 0.027437517
0001d0 1f fe 65 3b 4a 15 ae 3b 95 f4 52 bc 55 1c 8c 39
       0.0035094095 0.0053125964 -0.012875696 0.0002672399
0001e0 4a bd 4e bd fd c4 a0 bc ab c9 f2 ba f7 ac a9 bc
       -0.05047349 -0.019625181 -0.0018523237 -0.020712359
0001f0 5a 0e 14 bb cd 3d 90 39 00 60 89 bb f5 98 65 3b
       -0.0022591562 0.00027511865 -0.0041923523 0.0035033796
000200 67 39 2a bb f2 23 12 3c 2a a6 c1 bc a8 cf a0 3c
       -0.0025974156 0.008919703 -0.023638804 0.019630268
000210 b3 ae 18 3b 29 5e d5 3d 32 8c e4 bb 99 27 33 39
       0.0023297488 0.1041835 -0.0069747204 0.00017085522
000220 9e c7 b5 ba a2 77 ad bc 08 41 a0 3b 59 f8 85 bb
       -0.0013868695 -0.02117521 0.004890565 -0.0040884432
000230 37 be 83 ba 01 ec 6c 3a 1f 12 8a 3a 8f 36 90 39
       -0.0010051195 0.0009037853 0.0010533965 0.0002750647
000240 35 a6 14 3b b9 d7 2c 3b 65 bc 05 3d 85 3b 38 3a
       0.0022682075 0.0026373698 0.03265037 0.0007027912
000250 34 ce 37 bc 50 c9 9e 3c 7b 04 69 bd 2f 32 cc 3b
       -0.011218596 0.019383103 -0.05688904 0.0062315683
000260 2e c1 0a 3c d2 f6 04 3d 02 8f 12 3b 51 09 96 3b
       0.008468909 0.03246195 0.0022363071 0.0045787473
000270 32 d9 f1 3b e6 a3 89 bc 80 1d 49 bb 6e 82 9d 3c
       0.007380628 -0.016801786 -0.003068775 0.019227233
000280 d7 ef ac bc bd 11 45 3b e9 72 2e 3b 99 c9 c7 39
       -0.021110458 0.0030070387 0.0026618785 0.0003810644
000290 bb 44 92 3c 1f 45 21 bb f1 e8 47 bc e8 20 8f b9
       0.017855039 -0.002460785 -0.012201534 -0.00027299603
0002a0 af ab 8e 39 9f dd d7 39 89 65 d4 bd c6 8e c9 3b
       0.00027212265 0.00041173116 -0.10370929 0.006151053
0002b0 b6 f9 d1 bc 6c 37 40 3c 7c d1 36 bc 59 a4 4a 3c
       -0.025631767 0.011731964 -0.011158343 0.012368285
0002c0 2e d0 97 3c 07 d2 09 bd 9d 87 96 3b 67 9e c1 bd
       0.018531885 -0.033647563 0.004593803 -0.09454041
0002d0 91 3e 3a bb 06 d2 2c 3d 52 28 98 3c 11 cc e1 3a
       -0.002841864 0.04219248 0.018573914 0.0017226954
0002e0 d9 bd 28 bd 2f 4a 3a bb a7 92 44 3c 6a 07 c0 bb
       -0.041196678 -0.0028425565 0.011997855 -0.005860259
0002f0 e8 d4 f5 3b 0a 83 88 3b 31 7b 69 3c ae 6d 83 3a
       0.007502187 0.0041660117 0.0142505625 0.0010027194
000300 c6 16 6e bb 7e 45 0c bd bb c0 ed 3c d2 21 41 3a
       -0.0036329492 -0.03424596 0.029022565 0.00073674053
000310 f0 db 50 ba 09 eb 68 bb e0 97 f7 ba b8 58 5a bb
       -0.00079673436 -0.0035540482 -0.0018889867 -0.003331704
000320 25 56 45 3b e1 0a 90 bb 42 9e 90 39 79 f1 7e 3d
       0.003011116 -0.004395828 0.00027583732 0.062242005
000330 53 f5 27 3c 56 30 c8 bc 3e 3b 66 3c 63 18 9b 37
       0.010251361 -0.02443711 0.01405221 1.8488796e-05
000340 cf 4f ff b8 4e f5 d1 3b 47 7f 80 3b ae f1 c6 3b
       -0.00012174213 0.0064074164 0.0039214226 0.006071291
000350 5c a8 18 3c 1d 7f ea bc 47 68 c2 3c 17 bf 93 3b
       0.009317484 -0.028625065 0.023731364 0.0045088637
000360 63 b8 d4 3b 92 a5 8c b9 83 9a 09 3d 44 e9 22 3d
       0.006491707 -0.0002682624 0.03359462 0.03977324
000370 ba af d2 3c 12 fa 03 ba 67 0e 5e 3b c7 19 0d 3c
       0.025718559 -0.0005034517 0.0033883096 0.008612103
000380 21 11 5e 3a e9 8b 35 3c 9e bd 36 3d 3a f8 02 bc
       0.00084711803 0.01108072 0.044614427 -0.007993752
000390 62 31 70 3d e2 96 15 bc dd d7 09 bc 6d 84 ee 3c
       0.058640845 -0.009130212 -0.008413282 0.02911588
0003a0 83 65 34 bc 8e 9b 15 bb 28 9c 0c bb 1d 87 a6 3b
       -0.01101053 -0.0022828314 -0.002145538 0.0050820247
0003b0 3c 15 5e bb be 6d 2e bb b9 59 c1 3c 02 62 1a b9
       -0.0033887168 -0.0026615704 0.023602353 -0.00014723095
0003c0 35 49 c2 3a 21 80 40 bc ea bb 0f bc 77 b0 dd b9
       0.0014822843 -0.011749298 -0.00877283 -0.0004228388
0003d0 b6 54 5e 3b e5 8f a3 3a 50 a7 c3 ba cd a4 99 ba
       0.0033925003 0.0012478797 -0.0014927182 -0.0011722088
0003e0 a8 87 f4 bc 09 67 c5 ba 25 9b 2f 3c 4d a6 a1 ba
       -0.029849842 -0.0015060614 0.010718142 -0.0012332887
0003f0 11 0e 0c ba cd f5 a5 3b 0a 48 8d 3b c7 c1 81 b9
       -0.0005342672 0.005064702 0.0043115662 -0.00024749173
